modelos/modeloMLPBig.pt (torch, 178899 bytes, 7 tensors)

net.0.weight f4 [256, 9]
000000 d8 63 5e 3e be d8 24 3e 8f 02 16 3e d4 0b 18 3e
       0.21717775 0.16098306 0.14649414 0.14848262
000010 5e b6 2f bd 0c a5 e1 3c 12 83 11 bb e7 47 61 3d
       -0.04289853 0.02754452 -0.0022203368 0.055000212
000020 bb c8 37 3d 6d f0 1c 3d 29 9a e0 be fc 81 ab 3e
       0.044869166 0.038315225 -0.43867615 0.33497608
000030 6e c5 78 c0 a4 25 3e bd 57 21 c4 bc 15 4f 05 bc
       -3.8870502 -0.046422616 -0.023941679 -0.00813653
000040 c9 f9 4d bc ad 9c 8b bc 5e fd c4 be 3b c3 cf 3d
       -0.01257176 -0.017042482 -0.38474554 0.10144659
000050 e4 68 9e 3e c0 2c 8b be 98 44 9d 3e 17 20 8a be
       0.309394 -0.2718258 0.30716395 -0.26977608
000060 b7 3b e3 bd e8 2e 30 be f5 c5 bd bc 53 e4 cb 3e
       -0.11095374 -0.17205393 -0.023165682 0.39822635
000070 8b 84 c2 be 54 b3 b0 be 6c 39 31 bf d2 d2 0b 3e
       -0.37991747 -0.34511817 -0.69228244 0.1365464
000080 9d a0 25 bd e7 f0 c9 bc 0e e8 d4 ba cf 2d ff be
       -0.040436376 -0.024651004 -0.0016243474 -0.49839637
000090 87 ec e7 bc 74 0f 0a 3e 7f 1b e1 b8 74 5e 26 3f
       -0.028311027 0.13482457 -0.000107339576 0.64987874
0000a0 e2 13 51 3c 80 21 18 3e e6 2d 7e bc 89 06 1f 3e
       0.012761088 0.14856529 -0.015513873 0.15529837
0000b0 12 54 e7 bd 7c 80 75 3e 13 ab ac be d5 d8 2f bc
       -0.11295332 0.23974794 -0.3372427 -0.010732849
0000c0 5e 84 86 bf 15 ef 32 bd 13 32 12 3c 1d 1b ab bc
       -1.0509145 -0.043685038 0.008923071 -0.020886952
0000d0 66 f3 5d 3e 07 96 c3 be 83 31 87 3e 8f 8d f9 3d
       0.2167488 -0.382004 0.26404962 0.12185203
0000e0 0d 8c b1 3e 7e 8f 47 3e 48 f2 23 bc 4e 3a 28 3b
       0.34677163 0.19488332 -0.010006495 0.0025669518
0000f0 d3 b6 fc bc fe 30 10 bf 56 66 c4 3a 96 98 0e be
       -0.030848896 -0.56324756 0.0014984112 -0.13925394
000100 24 88 8d bd 9f f2 81 bd b4 f7 11 3f 19 72 c5 3c
       -0.069107324 -0.063451044 0.5701859 0.024102258
000110 89 34 d3 3c 87 a6 38 3c b5 6b 5a 3d f0 cb 60 3d
       0.025781887 0.011270172 0.053325374 0.05488199
000120 7d 98 9f bd e7 af b6 bd 44 14 1a 3d 9e d9 20 3f
       -0.07792757 -0.089202695 0.037616983 0.6283206
000130 8a 2a 05 be 3b 48 14 3e a9 dc 47 3d 25 36 eb 3b
       -0.13004509 0.14480679 0.048794422 0.0071780854
000140 1b cc f5 bd 45 80 dd 3e b9 11 ec be 3f b8 d3 be
       -0.12001821 0.43261924 -0.4610727 -0.41351506
000150 e4 08 c2 be 05 d5 47 3e 43 f7 3c be bd 08 4d 3d
       -0.37897408 0.19514854 -0.18453698 0.05005716
000160 5a 87 cf be 49 77 86 bd dd bb 0d 3c 6d 41 65 3e
       -0.40532953 -0.065657206 0.008650747 0.22388239
000170 9e 9c 40 3e b4 89 0a 3f 16 f4 cf 3b 45 48 bc 3d
       0.18809745 0.5411637 0.006346236 0.09193472
000180 77 cb 29 3d c6 f4 04 bc a2 9f 25 bd f2 20 71 3e
       0.041453805 -0.008114999 -0.04043544 0.23547724
000190 bc 13 a1 bd 67 fc 17 3e 84 9e 10 3f 80 5d b0 3c
       -0.07865092 0.14842378 0.56491876 0.02152896
0001a0 49 c4 85 3e 21 5f a3 bd 47 d2 41 be 13 32 a0 bd
       0.26126316 -0.07977129 -0.1892787 -0.07822051
0001b0 be a4 f8 3e 53 cc b2 be 90 87 75 bf 87 1d a4 bf
       0.48563188 -0.34921512 -0.95909977 -1.2821511
0001c0 c8 56 03 be 92 17 bd bd 26 e6 ba bd e8 af 7c be
       -0.12826073 -0.09233011 -0.091259286 -0.24676478
0001d0 16 45 23 3e ec cc ed 3e 66 d7 b7 be 04 b8 cc be
       0.15944323 0.46445405 -0.35906523 -0.39984143
0001e0 60 c3 e4 be 6a 59 52 3e 74 4d 1d be 85 8b 70 3e
       -0.4468031 0.20541921 -0.15361577 0.23490722
0001f0 3f 9a c6 be d7 5a 14 be a4 2b 86 be 02 cc e5 3e
       -0.38789555 -0.14487778 -0.2620517 0.44882208
000200 d6 1c cc be c0 7a 6c bf f4 bb 00 3e bf 1b b9 3c
       -0.3986575 -0.923748 0.12571698 0.022596238
000210 87 91 8a 3d ca 7a 2d be 47 9a 54 be f8 c2 50 bd
       0.067660384 -0.16941372 -0.20761977 -0.050967187
000220 cc 2a ac bd a4 42 76 bd 33 4b 96 3f 2c 6c 14 bd
       -0.084066 -0.060122147 1.1741699 -0.036235973
000230 1c 17 cc 3b 04 dd 57 bc 64 08 60 bb 81 54 02 bc
       0.006228341 -0.013175253 -0.0034184689 -0.007954718
000240 fa c3 b5 3d b6 2a 2b 3c d3 c9 82 bc 08 0b 87 3f
       0.0887527 0.010447195 -0.015965378 1.0550241
000250 cc 6c 75 3d a5 91 6d bd da 99 cd 3b ec b4 da 3c
       0.05991821 -0.058000226 0.006274444 0.026697598
000260 46 5e d8 bd e6 a8 f9 bd 9b ef 5f be 43 7c 4f bf
       -0.10564856 -0.12190418 -0.21868746 -0.81048983
000270 26 0a 08 3e d5 c9 8d 3e d8 e4 24 3f 52 02 0d bf
       0.13285121 0.27693048 0.6441169 -0.55081666
000280 2f 67 27 bf b2 68 0e be e0 2f a9 3d 6f da 9b 3e
       -0.6539182 -0.13907126 0.082610846 0.3044009
000290 10 80 e5 3e 59 1a 02 3f a6 ba b1 3c 60 65 e8 bd
       0.44824266 0.50821453 0.021695446 -0.11347461
0002a0 af c2 33 be 4b e5 a5 be 4e d9 47 be d0 37 0d bf
       -0.17554735 -0.324015 -0.19516489 -0.5516329
0002b0 5f 83 e2 3e ec 0c 9e be a9 86 92 3e 10 f3 11 3e
       0.44240853 -0.30869234 0.28618363 0.14252877
0002c0 6f 62 e6 3d 86 07 0e 3e 59 ff 74 be 58 da 7a be
       0.112492435 0.13870057 -0.23925532 -0.24497354
0002d0 71 0f bd 3e b5 e4 86 3e d1 9d 77 bf 53 bf 4e be
       0.36925843 0.26346365 -0.96725184 -0.20190172
0002e0 9f 51 6d bd 05 59 a6 be f9 d6 1a bf 4e d8 8c be
       -0.057939168 -0.32489792 -0.6048427 -0.27508777
0002f0 00 f2 88 be dd bd 7b be 71 4a 4e be 6c fa 32 bf
       -0.2674713 -0.24584146 -0.20145585 -0.69913363
000300 21 81 4e c0 cf 0d bd be 94 bd bc 3d 81 a9 19 3d
       -3.2266314 -0.36924598 0.09215847 0.037515167
000310 40 0d 12 3d 43 0f d9 3c 58 bc 9c 3e 50 97 a8 be
       0.035657167 0.026496535 0.30612445 -0.32927942
000320 6f ca 8e 3d 02 20 fa be bb 78 19 3d e8 64 0b bf
       0.06972205 -0.48852545 0.037468653 -0.54450846
000330 d4 b0 5c be 1f ab bc 3d 07 c2 f1 be a6 81 26 3e
       -0.2155183 0.09212326 -0.47218344 0.16260394
000340 c3 52 7e 3d c3 c3 a5 be c6 2e 93 be 98 e8 80 3c
       0.062090646 -0.32375917 -0.28746623 0.01573591
000350 07 42 d2 bd 04 f6 c7 be c1 c7 be be af 32 05 bd
       -0.102665 -0.39054883 -0.37261775 -0.03251904
000360 bf c2 2a be d5 38 f4 3c b9 a5 dc bb 06 65 aa 3f
       -0.16675852 0.029812256 -0.006733623 1.331208
000370 67 7c bb 3d 23 8d 10 bd 69 6a 95 bc 7f f2 e9 bb
       0.09154587 -0.03529085 -0.018239217 -0.0071395035
000380 43 ab 48 bd bc 84 63 be a9 36 31 3f dc 7c c4 be
       -0.048991453 -0.22218603 0.6922403 -0.3837651
000390 58 53 d1 bf 02 3b 16 bf ac c4 1a bd 7f 79 18 be
       -1.635356 -0.5868379 -0.037785217 -0.14890097
0003a0 d6 47 7b bb 0d 1b 16 3e 2c 3d 8e 3e a5 1b 7a 3d
       -0.0038342378 0.14658757 0.27781045 0.06106152
0003b0 42 af f7 bd 99 95 05 c0 dd c9 77 be 2b 21 76 3d
       -0.12093975 -2.0872557 -0.24198098 0.060090225
0003c0 ee a9 99 3d d5 73 a5 3d 32 15 67 3d 62 39 00 bf
       0.07503115 0.08078734 0.056416698 -0.5008756
0003d0 b5 63 96 3e e1 62 55 3d 29 f7 82 bc 28 42 11 3e
       0.29372945 0.05209625 -0.015986996 0.14185393
0003e0 ad 40 1c be 7b b9 51 3e a7 fe 56 be 8d b9 75 be
       -0.15259047 0.20480911 -0.2099558 -0.23996563
0003f0 23 84 e0 3c a6 b9 65 3d 2d d3 36 3e 3e 0c d3 3e
       0.027406758 0.05608525 0.17853995 0.41220278

net.0.bias f4 [256]
000000 2e 67 b0 bf c4 1a ad 3f cc 57 61 3d 0b d3 79 3e
       -1.3781488 1.3523793 0.05501537 0.24396913
000010 8e 0d 76 bf a8 25 5b 3f f1 01 8e be bb 16 df bf
       -0.9611443 0.85604334 -0.27735856 -1.7428812
000020 c3 c8 35 bf ba 54 a6 be 5d cf 58 bf b8 4e 81 bf
       -0.71009463 -0.32486516 -0.8469141 -1.0102148
000030 47 34 13 be 81 ab 32 bd 5e f5 1e be 4e 0a 13 bf
       -0.14375411 -0.04362059 -0.15523288 -0.574376
000040 d4 b3 37 bf 59 9d 31 bc 87 97 79 be bf c1 58 3e
       -0.7175877 -0.010840737 -0.2437421 0.21167658
000050 e4 be 3a be e7 89 2b 3f d9 a8 8e bd c5 62 ba be
       -0.18236881 0.670073 -0.06965799 -0.3640348
000060 9d d9 20 bf 92 c4 62 3d 00 1d d5 3e 51 9e 95 be
       -0.6283205 0.055363245 0.41623688 -0.29222348
000070 e3 62 93 bf 8a 88 7a be 29 e6 38 bf 65 b8 86 bf
       -1.1514553 -0.24466148 -0.72226197 -1.0525023
000080 41 b9 9f be 29 ec e6 3d 78 0f 12 be a3 38 5a bf
       -0.31196025 0.11275513 -0.14263713 -0.8524267
000090 82 c5 ba be 3b f6 a1 3e 61 81 82 bf 23 6f f6 3d
       -0.36478812 0.3163317 -1.0195733 0.120329164
0000a0 a7 69 34 bf 03 94 15 3e 0a a6 2a 3e 76 1f 30 bf
       -0.7047371 0.14607243 0.16664901 -0.68798006
0000b0 71 7c 2b 3f 49 43 2b bf 5f 8f b5 be 6f 4a 42 bf
       0.6698676 -0.66899544 -0.35460946 -0.75894827
0000c0 7a 63 46 bf 35 a7 83 3e 40 b0 26 bf 79 3b 66 be
       -0.7749554 0.25713506 -0.65112686 -0.22483625
0000d0 d4 4b ec 3e 0c 06 96 be 85 88 85 3e ac ed 83 3f
       0.46151602 -0.29301488 0.2608072 1.0306907
0000e0 ee 8a 0a be 86 90 70 be e9 77 13 bf cd 0c 91 3d
       -0.1352956 -0.23492631 -0.57604843 0.0708252
0000f0 38 47 2d bf a4 93 0b bf f2 11 83 bf 77 8f 8e 3e
       -0.67686796 -0.54522157 -1.0239851 0.2784383
000100 d9 e9 12 bf c5 10 8a bf a9 ca 9a bf 10 35 d6 3e
       -0.57388073 -1.0786368 -1.2093097 0.41837358
000110 2a 56 a0 3e 48 61 b8 3e fc 91 11 bf b0 15 3e be
       0.31315738 0.3601172 -0.5686338 -0.1856296
000120 6c d9 e9 3d 9e 34 0a bf 3c 93 1e bd 39 77 82 3e
       0.11418423 -0.5398654 -0.038714632 0.25481585
000130 b4 c1 8d 3e f5 e5 7f be e4 12 84 3e 9e 7f 5c bf
       0.27686846 -0.24990065 0.25795662 -0.8613223
000140 c9 b4 46 be 6c 9d e1 3e 17 4c 63 bf d5 81 8a bf
       -0.19404902 0.44065416 -0.8878798 -1.0820872
000150 fc e5 47 be 05 34 d6 bd 7a 26 03 be 82 be 8d 3e
       -0.19521326 -0.10459141 -0.12807646 0.27684408
000160 26 13 d9 bd c3 2b b1 be 32 0f 7a bf 31 e8 2e bf
       -0.105993554 -0.346037 -0.97679436 -0.68323046
000170 79 9a 6c be 7b 1a 87 be 2f 3f 1f 3e 92 7c 55 3f
       -0.23105802 -0.2638739 0.15551446 0.83393204
000180 33 b9 38 3f b3 f9 76 be e9 b7 95 bf f6 99 b5 be
       0.7215759 -0.2411869 -1.169675 -0.35469025
000190 7b e2 e1 3e da be d3 bf 93 d1 6e 3e 52 85 27 bf
       0.44118103 -1.6542618 0.23322134 -0.65437806
0001a0 d6 35 ab 3f 6c 65 01 bf c1 91 9e bf 18 ec 58 be
       1.3375804 -0.5054538 -1.238823 -0.21183813
0001b0 e9 eb 52 3e 31 1c dd bf 15 4f 59 bf 28 7c f2 3e
       0.20597805 -1.7274228 -0.84886295 0.4736035
0001c0 26 4b 66 3e 86 de 92 be 54 ce 35 3f f4 45 49 bf
       0.22489604 -0.28685397 0.71017957 -0.78622365
0001d0 26 73 b2 3e 37 c5 2b 3f 43 6a 8a be 69 65 6c 3d
       0.34853476 0.670978 -0.27034196 0.0577139
0001e0 b9 07 38 bf 38 df e4 ba ee a1 0d 3f b6 01 dd be
       -0.71886784 -0.0017461544 0.5532521 -0.43165368
0001f0 1d c1 80 bf 99 68 74 bf 93 7e ab bd 15 2f 05 3e
       -1.0058933 -0.95472103 -0.083737515 0.13006242
000200 e3 a7 d4 be 57 18 46 3f 3a 9c 57 bf 8d b5 54 3e
       -0.41534337 0.7738089 -0.8422276 0.20772381
000210 9e a2 04 bf b9 fd d4 be 8c f0 eb bc 40 05 8a be
       -0.51810634 -0.41599825 -0.028801225 -0.2695713
000220 57 fc 45 bf 94 4c 8f bd 8c dc 7c 3f ea 0a 09 be
       -0.77338165 -0.06997028 0.9877403 -0.1338307
000230 68 a6 5c bd e3 4a b4 bf 15 b0 9e 3e 53 6e 3d be
       -0.053869635 -1.4085354 0.30993715 -0.18499117
000240 25 35 e3 3e 47 82 2d 3e 66 97 90 bd 3b d7 73 3e
       0.44376484 0.16944228 -0.07060127 0.23812573
000250 24 02 93 bf a8 f6 20 bf bf 58 05 3d 3a ca ab bd
       -1.1485028 -0.6287637 0.032555338 -0.08388181
000260 ee 2c 78 3f 8c 2b ee 3e bd 6c 71 bf 08 aa 1c be
       0.9694356 0.465176 -0.94306546 -0.15299237
000270 9d a6 bf 3c be 70 b6 3c 6b de 27 bf 84 1a f2 3d
       0.023394877 0.022270557 -0.6557376 0.11821464
000280 39 23 25 bf 6a ac 39 be dd d5 45 bf b2 ac 28 bf
       -0.6450687 -0.18132177 -0.77279454 -0.6588851
000290 8d d0 d2 be 26 59 ed bd a1 89 13 3f 26 14 31 3f
       -0.41174737 -0.11589269 0.5763188 0.6917137
0002a0 43 93 c0 be b3 82 51 3f 88 0b 90 3d ab 00 95 bd
       -0.37612352 0.81840056 0.070334494 -0.07275518
0002b0 49 56 9c 3e c7 b6 10 be b6 76 b8 3e 55 51 8d bd
       0.3053458 -0.14132224 0.3602807 -0.069002785
0002c0 df e0 5b 3f 4a 23 1a 3f 3e a9 d8 3e d5 0f b6 3e
       0.8589 0.60210097 0.42316622 0.35558954
0002d0 e0 d0 91 bf 43 2d 0b 3e 42 e1 88 bf 7f 6c 02 bf
       -1.1391869 0.13591485 -1.0693743 -0.509468
0002e0 e4 aa 5a be fe 6b ba be f0 72 bc 3e 46 7b 01 bc
       -0.21354252 -0.36410517 0.3680644 -0.007902926
0002f0 42 b2 5c bf 05 8f 85 be d0 40 d1 3f e5 f8 eb 3e
       -0.862095 -0.26085678 1.6347904 0.4608833
000300 6d 17 29 bd cd 6c 00 bf c2 72 15 be 08 71 c5 bc
       -0.041282106 -0.50166017 -0.14594558 -0.024101749
000310 f8 2b 78 bf 79 7e a9 3e 03 4d 78 be 01 d7 55 bf
       -0.9694209 0.33104303 -0.24248128 -0.83531195
000320 63 42 9e 3e 90 35 92 bf 90 a1 90 bf 52 35 b9 bd
       0.30910024 -1.1422596 -1.1299305 -0.09043373
000330 47 35 cf 3f 13 a1 a3 bf 68 b2 03 bf 88 46 74 bf
       1.6188134 -1.2783531 -0.514441 -0.9542012
000340 d7 44 a7 bf f2 90 d4 be 7b c2 54 3d fa 08 6a 3e
       -1.3067883 -0.41516834 0.051943284 0.22854987
000350 72 94 c7 bf 7a 88 24 3f a4 18 8d bf b2 71 aa bd
       -1.5592177 0.64270747 -1.1023145 -0.08322467
000360 81 58 96 bf f7 bd 8d bf c3 e1 d1 be 59 29 45 3f
       -1.1745759 -1.1073598 -0.40992555 0.77016217
000370 6d 3b 30 3d 16 00 7a bf cb 1d c2 bf c9 67 04 bf
       0.043025423 -0.9765638 -1.5165342 -0.51720864
000380 b2 73 de 3e 6d 87 63 3e b4 56 54 be d8 7c c6 be
       0.43447644 0.2221963 -0.207362 -0.38767123
000390 28 45 ad bf 87 93 ac bf 50 68 e3 be ab dd 4b 3e
       -1.353673 -1.3482522 -0.44415522 0.19908778
0003a0 ab 17 95 bf 5d a3 4b bf e8 36 f7 be 46 45 7c bf
       -1.1647848 -0.7954615 -0.48284078 -0.985432
0003b0 ff 94 9f bf 1b ef fb 3e 85 fe 54 3f 90 c9 ec 3d
       -1.2467345 0.4920586 0.83200866 0.115618825
0003c0 aa a0 51 bf d4 87 9d 3d ec 42 87 3f fc d4 3f 3e
       -0.8188578 0.07691923 1.0567298 0.18733591
0003d0 13 61 10 bc 99 ef 62 3d b0 51 1d 3f 4e 5d 06 3f
       -0.008812207 0.05540428 0.6145277 0.5248612
0003e0 4c fc 51 be c4 4a 2a bf 1b 5d 9a bd b3 7a 0e bf
       -0.205064 -0.66520333 -0.0753729 -0.55655974
0003f0 06 66 82 3d a4 9f 0b bf aa 21 96 bf 0f 1f c4 be
       0.06367116 -0.5454047 -1.1729023 -0.38304946

net.3.weight f4 [128, 256]
000000 05 c9 5c bd ee 2f 5d bd ce 0a 2e bd 22 d5 dd bd
       -0.053902645 -0.054000787 -0.042490773 -0.108316675
000010 49 4c 50 3d 88 9d 6a bd 96 0b 2f bd 40 af 9c bc
       0.050854 -0.05727914 -0.04273566 -0.019126534
000020 d7 17 f6 bc 69 a7 70 3d a2 10 80 bd d8 77 63 3c
       -0.030040665 0.058753405 -0.062531725 0.013883553
000030 ed bb 52 bd e9 4c aa bd f7 e1 53 bd 34 b5 7a 3c
       -0.05144875 -0.08315451 -0.05172917 0.015301991
000040 cc 55 9a bd 51 12 e3 3b 3f 7f 6c bc 91 75 62 bd
       -0.07535896 0.0069296737 -0.014434635 -0.0552879
000050 5b 15 05 3c 9c 7b 71 3d a7 f4 de bc 04 3e 15 3d
       0.008122767 0.058955774 -0.027216269 0.036436096
000060 c2 5b 97 bd 1c 7e 68 3c 52 e8 b9 bc a4 ef ca 3c
       -0.07390548 0.014190223 -0.022693787 0.024772473
000070 02 73 03 3d b0 56 d3 bd d9 7b 3b bb a6 53 fe 3c
       0.032092102 -0.10319269 -0.0028607755 0.031045746
000080 98 48 b1 bc 06 bb 86 bd 3b dd 3d bc 30 0e ae bb
       -0.02164106 -0.06578641 -0.01158839 -0.00531175
000090 08 5d 51 bd 68 90 5f 3c e6 7c 20 bd 2a ea 2a 3a
       -0.051114112 0.013645269 -0.039181612 0.00065198785
0000a0 36 fd 8c 3c 09 40 61 bd 00 7e b0 3a c0 f6 86 bd
       0.017210584 -0.05499271 0.0013465285 -0.065900326
0000b0 c9 ef 11 bd 50 5a 0c bd b0 c1 21 bd e3 7e a1 3c
       -0.035629068 -0.034265816 -0.039491355 0.019713825
0000c0 5d 98 20 ba 87 48 46 bd 19 ac fe ba 8c 88 54 bd
       -0.00061262195 -0.04840901 -0.0019429951 -0.051888034
0000d0 a1 1a 0f bd 46 d9 95 3b b9 93 77 bd 44 bb b9 bd
       -0.034937505 0.00457302 -0.060443614 -0.09068921
0000e0 57 c0 7c bd fc 7f 58 3c da 6e 69 bd e5 83 8b bd
       -0.061706867 0.013214108 -0.056990482 -0.06812266
0000f0 1c 45 fc bb 5a 82 df 3c 66 00 ba bd c3 ee 5d bd
       -0.007698668 0.027283836 -0.09082107 -0.05418278
000100 c7 b3 a9 3b 98 e8 0c bd 4f d5 22 3c cb f5 47 bc
       0.005178902 -0.034401506 0.009938552 -0.012204598
000110 f9 44 ac bd 29 04 2b bd b4 ba cd bc b8 16 11 bc
       -0.08411593 -0.041752014 -0.025113441 -0.008855514
000120 be e3 7e 3a e9 4f f1 bc 0f ec ea 3b 40 3e 5a bb
       0.0009723267 -0.02945705 0.0071692537 -0.0033301264
000130 a2 df 55 bd ad fb 2a bc 7b e5 83 bd d3 b8 ce bb
       -0.052215226 -0.010435981 -0.06440254 -0.006308654
000140 a7 6e f2 bd 06 27 a6 bc 0a f7 52 3d 9b 3c f7 bd
       -0.118375115 -0.02028228 0.051505126 -0.120721065
000150 36 5c e4 bc 1a b6 59 bd 43 8c cb bc 90 f5 e2 bd
       -0.027876 -0.05315218 -0.024847155 -0.110819936
000160 08 14 67 bc ca 28 1f bd 8d e6 d5 bd 38 14 c2 bd
       -0.014103897 -0.03885726 -0.10444365 -0.09476513
000170 a6 d0 95 bd 34 57 3c bd 49 a9 57 bd df 0e c5 b8
       -0.07315187 -0.0459816 -0.052651677 -9.396462e-05
000180 8d d0 6e bb 93 b2 a8 bd e1 a8 70 bd 30 bd 83 bd
       -0.0036440224 -0.08237185 -0.058754805 -0.06432569
000190 43 d5 a5 bd f2 c4 d3 bc 8e a9 f8 bc cc 81 ad bd
       -0.08097317 -0.025850747 -0.030354287 -0.084720224
0001a0 e6 a8 d2 bd de ab 20 bd f9 f1 d5 bc 78 9f 2b bd
       -0.10286121 -0.039226405 -0.026116358 -0.041900128
0001b0 31 a9 b5 3b 59 b6 a7 bd d4 cc 47 bd ae 7a 0b 3d
       0.005543851 -0.08189077 -0.048779324 0.034052543
0001c0 6e f5 01 bb 6b 28 6c 3c 45 ae 6e 3c 31 f8 9f bd
       -0.0019830125 0.014413933 0.014567916 -0.07811011
0001d0 bc d9 35 be 4d d7 5d bd f6 a8 2e bd 3b 6c 08 3c
       -0.1775884 -0.054160405 -0.042641602 0.008326585
0001e0 76 e0 ea 3b da 24 4d 39 6d 76 42 bd 5a 99 e1 bc
       0.007167871 0.00019564052 -0.04747622 -0.027538944
0001f0 6e 97 41 3c 1e 63 b0 bd c6 8c 20 be fd 27 7b bd
       0.011815889 -0.08612655 -0.15678701 -0.061317433
000200 b5 59 11 3c 59 88 09 be b0 a6 8e bd 16 57 13 bd
       0.0088714855 -0.13430919 -0.06965387 -0.035971723
000210 f6 2e 9a bc 2e 9a 88 bd 97 b8 19 3d 2b 3e 88 3c
       -0.01882122 -0.066700324 0.037529554 0.016631206
000220 d3 ad 92 bd b9 85 dd bc bc d1 a0 bd 8d df c4 bd
       -0.071620606 -0.027041303 -0.07852504 -0.096129514
000230 40 11 e3 bb 84 9e c8 bd ff 14 b2 3c 80 47 51 bd
       -0.0069295466 -0.097958595 0.021738527 -0.05109358
000240 ac 99 fd bc 63 79 47 bd da 5a 33 bd f6 0b 2d 3c
       -0.030957066 -0.048699748 -0.043787815 0.010561934
000250 61 9b a7 bd 3a 2c 32 bd 8e b7 80 bd cd 46 01 bd
       -0.08183933 -0.04349921 -0.0628501 -0.03156166
000260 dd ff b7 3c 13 85 89 bd 98 f0 c9 3c 81 40 24 3d
       0.022460872 -0.06714835 0.024650857 0.04010058
000270 96 ac d8 bc 6e 92 a3 bb 66 b6 3f 3d d4 3d 31 bd
       -0.026449483 -0.004991821 0.046804808 -0.043271855
000280 c6 b9 c3 bc fb 1e 46 3d 0d d6 77 bc f4 df 57 3d
       -0.023892295 0.04836939 -0.015126717 0.052703813
000290 7a 80 9c bd 67 74 c0 3c f5 38 a4 bc b3 b2 8e 3c
       -0.076416925 0.023493005 -0.02004669 0.017419195
0002a0 2c 78 22 bd 8e 51 26 bd f4 a3 fd bc 26 c8 85 bd
       -0.039665386 -0.04060512 -0.030961968 -0.06532316
0002b0 a1 ce 3e 3d 3b 6d e7 3d bc ca ab bc e8 9f 53 bd
       0.046583775 0.11300131 -0.020970695 -0.05166617
0002c0 f5 88 69 bd e7 ef aa bd e4 5a 2a bb 4e f4 f4 bd
       -0.057015378 -0.08346539 -0.0025994116 -0.1196066
0002d0 13 ed bd bd 84 1d 32 bd a7 75 83 bd 18 ba 0a bc
       -0.09273734 -0.04348518 -0.06418925 -0.00846722
0002e0 83 73 cf bc 9a d9 97 bd c7 22 d5 bc 00 30 5d bc
       -0.025323635 -0.07414551 -0.02601756 -0.013500214
0002f0 9b 2d 4a 3c 9d a7 83 bd b2 b5 05 bd 46 b9 70 bd
       0.012339975 -0.06428454 -0.03264398 -0.05877044
000300 59 7b 1d bd 21 2f 6f bd b9 32 37 bb 3f 9c 8f bd
       -0.03844771 -0.058394555 -0.0027953817 -0.070122235
000310 f6 aa 8f bc 2f cf eb 3a 7c c1 ad 3c e2 62 6d bd
       -0.017537575 0.0017990823 0.021210425 -0.05795563
000320 49 40 05 3c 8f 42 e3 bc 26 1c b4 bd c5 ed 79 bd
       0.008133003 -0.027741699 -0.087944314 -0.06101777
000330 42 a9 2c be 35 82 1a 3d 43 27 11 bd f3 e6 b1 bd
       -0.16861442 0.03772183 -0.035437834 -0.08686628
000340 06 f1 3c bc 87 cf 8b bd 20 df 38 3b 18 9e e3 3c
       -0.011532074 -0.06826692 0.0028209165 0.027785346
000350 4c 5e a1 bd 6c 34 dc bc de f9 5c 3c 3c d2 94 3b
       -0.07879314 -0.026880465 0.013487307 0.0045416635
000360 f4 8c c1 bd ed 01 2c bd 69 b2 5c bd 4d fe b2 bc
       -0.09450713 -0.041994024 -0.053881083 -0.021849776
000370 e7 12 4c bd 4f 1a b5 bd f7 79 77 bd ef 8e 11 bd
       -0.049822714 -0.088429086 -0.06041905 -0.035536703
000380 55 4a 72 bd 1d 22 25 bd 70 22 08 bd 1d 30 01 bc
       -0.05915292 -0.040315736 -0.033235967 -0.007885006
000390 d8 9a c7 bc 28 94 94 bd 58 d0 af 3b 4e c7 86 bd
       -0.024365827 -0.07254821 0.0053654127 -0.06580983
0003a0 e2 17 5a bd 8d a4 6a bb 90 88 15 3c c4 a1 c1 bb
       -0.053245433 -0.0035803646 0.009126797 -0.0059091765
0003b0 1b b0 80 bd c9 42 d3 bd 15 02 22 bd 48 d1 24 bc
       -0.062835895 -0.10315473 -0.039552767 -0.010059662
0003c0 c8 59 a6 bd 55 b7 bb bc 1c ba 9c bd f5 2f 89 b9
       -0.08122593 -0.022914568 -0.07652685 -0.00026166407
0003d0 e0 e9 b7 bd 2f 76 34 3d c5 1e 7b bd cd 99 8b bd
       -0.08980155 0.04405802 -0.06130864 -0.068164445
0003e0 3c c8 e9 bd 9e d6 93 bd fb 78 9d bd fe 14 37 bd
       -0.11415145 -0.07218669 -0.07689091 -0.044697754
0003f0 68 14 ce bc c8 31 34 3d 7e e3 9f bc 45 60 c6 3b
       -0.025156215 0.043992788 -0.019517656 0.0060539567

net.3.bias f4 [128]
000000 68 b9 6a bd 2f 97 8f 3e da 56 15 be 3c f1 3f 3e
       -0.057305723 0.2804503 -0.14583912 0.18744367
000010 27 0b de bd 09 84 b5 be a6 36 b3 bd cf 25 d4 bd
       -0.10841971 -0.35452297 -0.08750658 -0.10358774
000020 63 e5 b3 3e fb fe 9b bd 1a 43 15 be 3c 89 92 bd
       0.35135946 -0.07616993 -0.14576378 -0.07155082
000030 12 ef 09 be 4b d0 21 be fa 4f 88 bd 7c e5 19 3d
       -0.13470104 -0.15802114 -0.06655879 0.03757237
000040 9c 0e 22 3e d4 fd d3 bd 43 5c 3a be b3 96 9b bd
       0.15825886 -0.10351148 -0.18199258 -0.07597103
000050 2a 2e aa 3e db c5 1a be 3e cb f3 bd c7 75 94 be
       0.33238345 -0.15114538 -0.11904 -0.28996107
000060 1a 5b 11 3e ed 23 9c ba 30 77 22 bd ae 9f a6 bd
       0.14194909 -0.0011912562 -0.039664447 -0.08135925
000070 06 b2 af be c7 09 f5 bd c8 8d 48 bd 64 6b fb bc
       -0.3431551 -0.119647555 -0.048963338 -0.030690856
000080 bb f3 cf bb 9e 2c f8 3e 24 58 3e be 55 3d 83 bd
       -0.0063461936 0.4847154 -0.1858831 -0.064081825
000090 e5 8a 3d 3e f9 28 55 bf 66 a9 cc bd f3 00 11 3f
       0.18510015 -0.83265644 -0.09993248 0.56642073
0000a0 8c 0b 39 3f e3 00 cd bd d3 df a9 bd 4d 51 fb bd
       0.72283244 -0.10009935 -0.08294644 -0.12271366
0000b0 99 b8 12 bf 8f df f9 bd 93 0d 1f be af 36 00 be
       -0.57312924 -0.122008435 -0.15532522 -0.1252086
0000c0 32 49 8f bd fc 88 13 be 89 6c 15 be 47 18 ba 3e
       -0.06996383 -0.14407724 -0.14592184 0.36346647
0000d0 3f a7 ac 3e 85 44 d9 bd ef dd d6 bd f9 ea c4 3c
       0.3372135 -0.10608772 -0.10491549 0.024037825
0000e0 a4 ea ff bd 8e 2c 8e bd 2f 10 2f 3f e5 5c 96 be
       -0.12495926 -0.06942092 0.6838407 -0.29367748
0000f0 64 35 00 3f 06 7d 4b bd a8 ed e5 bd 12 92 b3 bd
       0.5008147 -0.04967978 -0.1122697 -0.08768095
000100 2f 85 64 bc b0 ad c1 bd e0 e9 fb bb 95 50 1a 3d
       -0.013947769 -0.094569564 -0.007687792 0.037674505
000110 a5 6b b6 3e a0 7b 62 bd 9d 63 c3 bd 91 c3 03 3c
       0.35629 -0.05529368 -0.09540484 0.008042232
000120 b3 14 01 be dd ea 06 be 34 33 23 be 79 06 fc bd
       -0.12605552 -0.1317553 -0.15937501 -0.12305922
000130 e2 d3 b7 be 07 4a 13 3e 74 72 f1 bd 42 ab 8b be
       -0.3590384 0.14383708 -0.11789408 -0.27279097
000140 b7 42 5c bc e0 37 97 bc b6 b6 51 3d 77 a5 b0 3e
       -0.01344364 -0.01845926 0.051199637 0.3450124
000150 59 47 80 bd 27 f4 da bd 2d ef b4 bd 98 54 4c be
       -0.062636085 -0.106910996 -0.08834682 -0.19954145
000160 ab 58 20 3e ac 40 43 be 48 b2 cf 3e e7 6c f6 bd
       0.15658824 -0.19067639 0.40565705 -0.1203249
000170 a0 10 2d bd bb 89 9d 3e 1f 74 e3 be 8d d8 df bd
       -0.042252183 0.30769143 -0.4442453 -0.10929976
000180 97 57 ae bd 9b 5b 35 bd c5 00 2e bd a0 10 a6 bd
       -0.085128 -0.044276815 -0.042481203 -0.0810864
000190 15 dd f4 be 1e b6 04 be 67 b0 27 be 1a 99 34 be
       -0.47824922 -0.12960097 -0.16375886 -0.17636529
0001a0 5f b5 be bd e1 71 ec bd 38 95 3a bd 86 85 a4 3e
       -0.093119375 -0.11545158 -0.045552462 0.3213312
0001b0 c2 a2 73 be bf bb 16 be 03 63 2e be 18 ff 30 bd
       -0.23792556 -0.14720057 -0.17029957 -0.043212026
0001c0 7e a0 8f bd fb 33 07 be 23 d0 68 bd 60 92 e5 3e
       -0.07013033 -0.13203423 -0.05683912 0.44838238
0001d0 77 8c 0b bb da 35 87 be 76 e2 f9 bd ac 45 62 be
       -0.002129344 -0.26408273 -0.12201397 -0.2209689
0001e0 0a 73 b8 bd 58 83 0a be 9e e4 17 bc 20 f2 74 bd
       -0.09006317 -0.13526666 -0.009270815 -0.05980122
0001f0 72 6d de bd 7b 9c ae bd 5c 28 b1 bd 73 83 a4 bd
       -0.10860719 -0.0852594 -0.08650276 -0.080328844

net.6.weight f4 [64, 128]
000000 19 45 b3 bd 48 67 89 bd b7 3b 5c bd 7d 5b 0c be
       -0.08753414 -0.067091525 -0.053767886 -0.13706775
000010 b0 f0 b4 3c 79 3c a8 bd 74 b3 fa bd 31 7c 08 be
       0.022087425 -0.08214659 -0.12241259 -0.13328625
000020 fa b4 40 3d 44 13 e5 bd 4b f1 5f 3c 2d 97 83 bc
       0.047047593 -0.11185315 0.013668369 -0.016063297
000030 6b 8a 80 3d 56 e9 9b 3c ce 2a 9c bc 0d c7 a3 3d
       0.06276401 0.019032162 -0.01906338 0.0799695
000040 d3 3d 5f bd 31 e8 b1 bc 16 e5 0c 3d 72 63 9e 3d
       -0.05450232 -0.021717163 0.03439816 0.077338114
000050 58 68 58 bd e2 0d ac bc d9 35 b2 be b5 1f 2f be
       -0.052833885 -0.021002714 -0.34806708 -0.17101939
000060 88 a3 54 be 4b 46 9d bd a0 b2 1c 3d d2 bd 20 bd
       -0.20765507 -0.07679423 0.038256288 -0.039243527
000070 bc 39 26 3c dc e2 fd 3d 6f 5c d2 be b3 bb d0 bd
       0.010145601 0.123967856 -0.41086146 -0.10192051
000080 d7 af 0f be 02 1c c2 be f0 51 8b 3e d2 ae 95 be
       -0.14031921 -0.37911993 0.2721095 -0.2923494
000090 49 10 02 bf b2 34 a7 bb a9 18 6f bc eb c2 a5 bd
       -0.508061 -0.0051027173 -0.014593282 -0.08093818
0000a0 31 e5 f3 bd e5 3e 03 3e a2 1a 37 3d c6 42 9d bc
       -0.11908949 0.12816961 0.044703133 -0.01919688
0000b0 a2 4f 40 be 8b b5 59 bd 60 5c d6 3d 46 3e b9 3c
       -0.18780378 -0.05315165 0.10466838 0.022612702
0000c0 ab 6e e5 bd 8b d5 17 bd 8e cb cd bd 18 d6 d7 3c
       -0.11202749 -0.037068885 -0.100485906 0.026347205
0000d0 d1 eb 92 be ac ed fc bd 22 a4 39 bc 65 b5 d5 bc
       -0.2869554 -0.1235002 -0.011330636 -0.026087472
0000e0 b8 66 af 3c 39 50 22 be b2 6f 59 be 5a f6 0e 3e
       0.021411285 -0.15850915 -0.21234015 0.13961163
0000f0 60 f7 75 be 01 b1 15 be ca f8 c1 3c 94 f7 12 3d
       -0.24020147 -0.14618303 0.023678202 0.03588064
000100 20 73 66 3c b7 b4 c2 bc 26 c0 13 be 49 1f 1d be
       0.014065534 -0.023767812 -0.14428768 -0.15343966
000110 11 c7 fe be 78 ba ad 3c 36 f4 ee bc 1d 81 4e be
       -0.4976125 0.02120708 -0.029169183 -0.2016644
000120 db 59 86 bd e5 38 0e 3d b9 74 0e 3b 4e 25 90 bb
       -0.06560107 0.034722228 0.0021737053 -0.0043989783
000130 27 7f 1d be 01 1c 18 bd 51 b1 90 3d be 3e ce ba
       -0.15380536 -0.03713608 0.070650704 -0.0015735251
000140 cf c2 92 3d f8 de ad bc d2 c7 7e bd 16 0f 1a be
       0.07166063 -0.021224484 -0.062202282 -0.15044817
000150 51 f8 93 3c f4 9f 2e bc e2 7a cb 3d 31 81 90 bd
       0.018062742 -0.010658253 0.099355474 -0.07055891
000160 42 09 37 bd dc a9 1f 3d ea c6 4c bf d9 3d bd 3c
       -0.044686563 0.03898035 -0.7999102 0.02310078
000170 2b ab 17 3d 4d 8f a7 3d a4 8f 59 be 04 42 bf bc
       0.037028473 0.08181629 -0.21246201 -0.023346908
000180 2a 26 a8 bd e1 2d c9 bd 55 b0 bb bd 60 ec a7 bd
       -0.08210404 -0.09823204 -0.09164492 -0.08199382
000190 09 6c ba bd 3a fe 4e 3d 47 96 8b 3d 07 6a c8 3d
       -0.09102637 0.050535418 0.068157725 0.09785848
0001a0 50 d4 04 bd 4a d3 d8 bd 3c ff 8a bd cc 14 42 3d
       -0.03242904 -0.10587175 -0.06786963 0.047383115
0001b0 d0 d3 f3 3c 82 e6 48 bc fe f7 81 bd e7 ea 19 bd
       0.029764086 -0.012261989 -0.06346129 -0.037577536
0001c0 36 c6 8d 39 b4 5a 4a bd 5c ba b7 bd 5b 34 17 bd
       0.00027041294 -0.049402907 -0.08971092 -0.036915164
0001d0 7f c4 bf be 04 ed 9d bd 98 f8 5f bd 44 61 20 3c
       -0.37454602 -0.07711223 -0.054680437 0.009788815
0001e0 7b 48 1b 3c 07 87 04 bd 5c 27 15 3e 22 9b c5 bd
       0.00947773 -0.032355335 0.14565796 -0.0964873
0001f0 f0 ee 78 bd 81 90 fd 3c f5 78 6f 3c 45 07 8f bd
       -0.060774744 0.030952694 0.014616241 -0.069838084
000200 39 7a 03 bd 09 a9 37 be 3f c4 17 3d 39 b8 b0 3d
       -0.032098982 -0.17935576 0.03705239 0.08628888
000210 cd ea 92 bc a2 62 05 be ea 89 bb bd 8b 0e 50 3d
       -0.017934227 -0.13025907 -0.091571644 0.05079512
000220 66 f5 10 be 7a 35 de bc 8e 87 89 3d 99 1f 00 bd
       -0.14156112 -0.027125109 0.06715308 -0.031280134
000230 14 9a 57 3d 54 36 7a 3d 9c 60 1b bd d0 52 8e 3d
       0.052637175 0.061086968 -0.03793393 0.06949389
000240 a0 4f 26 3d 5e cd 70 3d 52 b8 25 be 34 63 6d bd
       0.04060328 0.058789603 -0.16183594 -0.057955936
000250 c9 bb 16 bc ab d7 b5 bd ed bf a4 be 09 8b 1d 3c
       -0.009200045 -0.08879026 -0.32177678 0.009615668
000260 75 70 94 bd 0b 57 62 3d 73 6b 79 3d 28 82 3a bd
       -0.07248012 0.055258792 0.060893487 -0.045534283
000270 28 e0 2c be 65 79 00 3d 7c 18 9c be 4a 9b b4 bc
       -0.16882384 0.03136577 -0.3048743 -0.022046704
000280 b9 57 be bc 3c c7 a2 bc 17 dd 99 bd d9 19 66 be
       -0.023235189 -0.019870393 -0.07512873 -0.22470798
000290 47 6a b4 bd 98 e4 c3 bd 17 b1 21 bd 45 1b 98 bd
       -0.08809333 -0.09565085 -0.039475527 -0.07427076
0002a0 f1 f8 6c be 20 6e 10 be d2 6d 8e 3c 5f 0e 30 3d
       -0.23141839 -0.1410451 0.01738635 0.042982455
0002b0 46 34 94 bd d4 5b 5c 3b 7d bf 08 3e 52 42 ed bc
       -0.07236533 0.003362407 0.13354297 -0.028962288
0002c0 21 cc 86 3d 97 3e 7c bd 95 ab 8c 3b 20 9b 90 3d
       0.06581903 -0.061583128 0.004292915 0.07060838
0002d0 08 9b d1 3c ec 9d a4 3c b6 97 cf bd d5 39 c8 bd
       0.02558662 0.020094834 -0.101363584 -0.097766556
0002e0 3e 95 0f 3d 41 6c 8f 3d 32 75 8c bd 14 66 3a 3e
       0.035054438 0.0700307 -0.06858291 0.18203002
0002f0 ce 1a 8f bd bd 23 49 be ba d7 b0 bd d7 d2 4b 3d
       -0.069875345 -0.1964254 -0.086348966 0.04976162
000300 6f 4a 91 3d 28 f0 8b 3d 78 3d 35 3d 5e 6a 69 bc
       0.07094275 0.068329155 0.044248074 -0.014246551
000310 11 87 53 bd b2 6b 87 3d 29 8d fc 3c dc 50 5e bd
       -0.05164248 0.06612338 0.03082903 -0.054276332
000320 c9 06 a4 bc af 17 85 3d 11 54 6e bd 4b b2 b3 3b
       -0.020022767 0.06498658 -0.05818564 0.0054839007
000330 7c a8 ce bd af f2 0d 3e 04 8c c7 bd ea ee 68 bd
       -0.100907296 0.13862108 -0.09743503 -0.05686847
000340 0c 2e 1d 3d e5 35 7d 3d 8c 06 59 be 7c f7 10 be
       0.03837399 0.061818976 -0.21193904 -0.14156908
000350 6d e9 03 bd 03 61 b6 3c de ef 88 bd 6f 34 13 3d
       -0.032205034 0.022263056 -0.06686376 0.035938676
000360 d9 08 11 be 3e a0 05 3e 76 70 0a be 95 8f 90 3c
       -0.14163531 0.13049409 -0.13519463 0.01764659
000370 08 d3 e7 3b 89 2e 21 be 98 37 4c be 96 7d 02 be
       0.0070747174 -0.15740408 -0.19943082 -0.1274322
000380 e5 3e 66 bd f9 bb 93 bd 03 1c 0d bc ab 2f 41 be
       -0.056212325 -0.07213587 -0.008612636 -0.1886584
000390 93 25 4e be d3 47 3f 3d 98 bc 97 3b 4d f7 22 bd
       -0.20131521 0.046699356 0.0046306364 -0.039786626
0003a0 5b c8 8a bd 8a 3c 54 3d 47 c1 91 3d 38 9e 93 be
       -0.06776496 0.051815547 0.07116943 -0.2883165
0003b0 3d 68 8e bd 20 75 0f 3d 82 39 a2 bd cc 75 19 be
       -0.069534756 0.03502381 -0.07921125 -0.14986342
0003c0 a2 05 12 3d 78 82 7b 3d d8 51 67 bd a3 a1 63 bd
       0.035649903 0.06140372 -0.056474537 -0.05557407
0003d0 4e 88 15 be 0e ba a0 3c 21 35 1f bc e4 42 53 bd
       -0.14602777 0.019619968 -0.009717257 -0.051577464
0003e0 e1 d7 c3 bc b4 57 19 bd 0f 26 8a 3d cb f4 46 3c
       -0.02390665 -0.037437156 0.0674554 0.012143324
0003f0 33 8e ca 3c ad 2a 12 bd 59 34 41 3d 9d 0c bd bc
       0.024726009 -0.03568523 0.047169063 -0.023077304

net.6.bias f4 [64]
000000 f0 69 59 3e ac ef ff be 41 54 a7 be b8 7f a3 bd
       0.21231818 -0.49987543 -0.32681468 -0.07983345
000010 6d 8b 24 3e 0c 95 75 be df 88 9f bd 67 b9 99 be
       0.16068812 -0.23982638 -0.07789778 -0.30024263
000020 39 c7 cd 3e 95 c8 3d be 0d 2a 4b 3f ba fa 66 3e
       0.40191057 -0.18533547 0.7936104 0.22556582
000030 16 75 04 3f 63 35 82 be 1c 8c 79 3f 81 4d 1a 3f
       0.5174116 -0.25431356 0.97479415 0.6027451
000040 3a eb ea 3d 18 4b 20 3d 35 13 45 3c 60 d5 98 3e
       0.11470647 0.039134115 0.012028505 0.29850292
000050 d0 4b ac 3e 14 fd 01 bd 11 25 32 3e 2d 0e 15 be
       0.3365159 -0.031735495 0.17396952 -0.14556189
000060 1d 98 b0 be 1d 7c 33 3f a7 65 94 3f 35 c2 e1 bd
       -0.34491053 0.70111257 1.1593522 -0.1102337
000070 88 48 59 3d 34 9a eb 3d b2 e4 5a bf 54 e4 a9 3d
       0.053047687 0.11504021 -0.8550521 0.08295503
000080 14 f2 0f 3c e9 46 56 3e a6 44 11 3f de 2f 87 ba
       0.008785743 0.20925488 0.56745374 -0.0010313948
000090 7b ba 53 3e 44 5c 92 3d 63 53 4d 3d 3f 84 44 3d
       0.20676605 0.071465045 0.050128352 0.047977682
0000a0 1f d0 71 3e d1 1c b8 3b a2 bb 87 bd 6b 78 64 3f
       0.23614548 0.0056186696 -0.06627585 0.89246243
0000b0 6d 39 32 3e ff c5 2c be 6d 58 61 bd 02 54 57 be
       0.17404719 -0.16872405 -0.05501597 -0.2102814
0000c0 22 3d 11 3f ee 4e 8d be 63 9d 31 be a7 af 40 3e
       0.56733906 -0.2759928 -0.17345195 0.18817006
0000d0 94 de 23 3d 96 f4 80 3e 57 3d 16 3f 32 b6 26 3e
       0.04000719 0.25186604 0.5868735 0.1628044
0000e0 64 56 0d 3f 27 1f ca be 76 aa 8a be 5c 09 33 3e
       0.55209947 -0.39476892 -0.27083176 0.17484039
0000f0 2b 2f c4 bf 54 0c 9e bd a1 a7 22 3e 5b 1c 15 bc
       -1.5326895 -0.07717195 0.15884258 -0.009100999

net.8.weight f4 [1, 64]
000000 d4 48 31 bd 90 db ba 3c bc ad 8b 3a 99 2c ae 3c
       -0.043282345 0.022809774 0.0010656635 0.0212615
000010 a8 1d 16 bd 5a 13 77 3d 20 68 51 3c 7a ab 80 bd
       -0.036649376 0.06032119 0.012781173 -0.062827066
000020 68 c9 fb 3d 41 63 93 bd 12 6a 0a 3e c4 81 20 bd
       0.122942746 -0.071966656 0.13517025 -0.039186254
000030 74 06 cd bc d4 0b 9b 3d 21 91 4a 3d 46 02 5e bd
       -0.025027491 0.075706154 0.049454812 -0.054201387
000040 e4 9c a0 bd ba 67 5b 3e f7 57 63 3e e3 1f db 3d
       -0.078424245 0.21426287 0.22201525 0.10699441
000050 bf 65 56 bd 43 f4 d4 3d e2 97 c2 3c 6c ec 24 3d
       -0.052343126 0.10398152 0.023754064 0.040264532
000060 2f b3 9a 3d 80 b8 5e bd fd 8a f6 3d 3d 22 a4 3d
       0.07553708 -0.05437517 0.12038229 0.08014343
000070 74 ad 07 3e 5c 87 d9 bd c5 e9 03 bd ba fb 31 bd
       0.13249761 -0.10621521 -0.032205362 -0.043452956
000080 1c cc be 3c 1b 9e 35 3d 5e 3f 11 bd 2b 01 b9 3d
       0.023290686 0.044340234 -0.035460822 0.09033426
000090 fc aa f9 3d 46 b3 47 bc 64 1c 9a 3d 1a 7a 87 3d
       0.12190816 -0.012188738 0.07524946 0.06615086
0000a0 17 40 f6 3d f3 39 fb bc d6 87 a4 3d cd fa af 3d
       0.12023943 -0.03066728 0.08033721 0.08592758
0000b0 be 49 9e 3d 98 19 5e bd 87 f7 87 3d f3 e4 a4 bd
       0.07728909 -0.054223627 0.06639009 -0.08051481
0000c0 da 32 97 3b d3 71 d6 bc 01 40 93 bc 9a c1 46 3d
       0.0046142163 -0.026177322 -0.017974855 0.048524477
0000d0 21 2f 9e 3d bb 23 0e be e6 a3 ac 3d 0e d0 fd 3d
       0.07723833 -0.13880818 0.08429699 0.12393199
0000e0 3e fa ca 3d 38 69 d5 3c ae c9 3d 3c ba 7d ef bd
       0.09911011 0.026051149 0.011583729 -0.11693902
0000f0 dd e2 f8 3d 6c 24 c7 bd d6 d0 00 bd bc d7 87 bd
       0.12152646 -0.09723744 -0.03144916 -0.06632945
