modelos/modelo_mlp_crimen.pt (torch, 41677 bytes, 5 tensors)

net.0.weight f4 [128, 9]
0	0x3e4dc5ea	0.2009503
1	0xbe3226d6	-0.17397627
2	0xbd0ce501	-0.034398083
3	0x3f2a790a	0.6659094
4	0x3dc3ea51	0.09566177
5	0xbca6c7a4	-0.020358868
6	0x3e539535	0.20662387
7	0x3dd56aec	0.10420784
8	0xbe15a75b	-0.14614622
9	0x3d54f401	0.051990513
10	0x3ef1593e	0.471384
11	0xbeb5638e	-0.35427517
12	0xbdac669f	-0.08418011
13	0xbdeca1bb	-0.11554285
14	0xbda3965f	-0.079876654
15	0xbd36cfa2	-0.044631608
16	0xbd2bbb41	-0.041926626
17	0xbc98d26b	-0.018655023
18	0xbd4f2b6b	-0.050578516
19	0x3d8e3be2	0.069450155
20	0x3ebd0779	0.36919764
21	0x3dfd7c46	0.12377219
22	0x3e827573	0.25480232
23	0x3e9f9ef2	0.31175953
24	0xbcd485fd	-0.025942797
25	0xbd3aab75	-0.04557367
26	0x3cbee81e	0.023304041
27	0xbe87999d	-0.26484385
28	0x3ec2988f	0.38007018
29	0xbea3a01f	-0.319581
30	0xbdcc05b0	-0.09962022
31	0xbe5a64c5	-0.21327503
32	0xbe99bbd9	-0.3002613
33	0x3e7407ad	0.23831053
34	0xbe04d14a	-0.12970462
35	0xbe6c5d4b	-0.23082463
36	0x3e094cc4	0.1340819
37	0x3e9fdd04	0.3122331
38	0x3e49700b	0.19671647
39	0xbf54c937	-0.8311953
40	0x3c19630d	0.009361994
41	0xbe2448f5	-0.16043456
42	0x3dba3e94	0.09093967
43	0xbd8b4f17	-0.068021946
44	0x3e0267ce	0.12734911
45	0xbe751a50	-0.23935819
46	0x3e179949	0.14804567
47	0x3ea83bff	0.32858273
48	0x3e21750c	0.15767306
49	0x3e7338e4	0.23752171
50	0xbe6df3fe	-0.23237607
51	0xbeb05f32	-0.34447628
52	0x3e6280ae	0.221194
53	0xbceef18c	-0.029167913
54	0x3ed4578c	0.41473043
55	0x3e786c93	0.24260168
56	0x3efaec6d	0.49008504
57	0xbf00ff92	-0.5038997
58	0x3d5a522b	0.053301018
59	0x3de37533	0.11106338
60	0x3df92254	0.12164751
61	0x3e4d4fec	0.20050019
62	0x3d4663b3	0.048434924
63	0x3eec7e2c	0.46190012
64	0xbeaea02d	-0.3410658
65	0xbf112ddf	-0.5671062
66	0xbfaf64de	-1.3702657
67	0xbf26dced	-0.65180856
68	0xbe201584	-0.15633208
69	0x3e7595f6	0.23982987
70	0x3c0f707e	0.008754848
71	0xbceb0d74	-0.028692938
72	0xbda256e9	-0.07926733
73	0x3e545dfd	0.20738979
74	0xbea64083	-0.32471094
75	0xbedc4d21	-0.43027595
76	0xbe65a143	-0.22424798
77	0xbdd2bc3d	-0.1028981
78	0xbd504c79	-0.05085418
79	0x3caa2a82	0.020772222
80	0x3e83cc04	0.2574159
81	0x3ccf5a7b	0.0253117
82	0xbe5a3c7e	-0.21312138
83	0x3ec4cb9b	0.3843659
84	0xbeee5ba2	-0.46554285
85	0xbde6b353	-0.11264672
86	0x3c6b2bf6	0.014353743
87	0x3e5c77d1	0.21530081
88	0x3d6c780b	0.05773167
89	0xbdfd8166	-0.123781964
90	0x3ebb8390	0.36623812
91	0xbe54caae	-0.20780441
92	0x3e92888c	0.28619802
93	0x3f5180ce	0.81837165
94	0x3dcd197c	0.100146264
95	0x3dd3ab68	0.103354275
96	0xbd23a857	-0.039955463
97	0xbccad2da	-0.024758745
98	0x3d51188a	0.051048793
99	0xbec9f263	-0.3944274
100	0x3e7ec760	0.24880743
101	0xbf096a13	-0.5367748
102	0x3dd01ff8	0.101623476
103	0x3e414bd3	0.18876581
104	0xbe02a130	-0.127568
105	0x3e66dcc6	0.22545156
106	0xbd9df010	-0.07711804
107	0x3d9e6a6b	0.07735141
108	0xbf2af874	-0.6678536
109	0xbe6da1fa	-0.2320632
110	0xbf153525	-0.5828422
111	0xbf321a85	-0.69571716
112	0x3e3843f8	0.17994678
113	0xbc1a127b	-0.00940382
114	0x3c903a47	0.017605914
115	0x3d5b2768	0.053504378
116	0xbe5983f7	-0.21241747
117	0xbea3d14d	-0.3199562
118	0xbe9e1e17	-0.30882332
119	0x3e384dbb	0.17998402
120	0xbec4edb8	-0.38462615
121	0xbecda748	-0.40166688
122	0xbd5e4661	-0.054266337
123	0xbeb1fd62	-0.34763628
124	0x3e261110	0.16217446
125	0xbde7296c	-0.112871975
126	0x3db77ec8	0.089597285
127	0xbe815eca	-0.2526763
128	0xbea800de	-0.32813162
129	0xbdf8b08e	-0.1214305
130	0x3e653d91	0.22386767
131	0xbde6d30c	-0.11270723
132	0xbd387bf5	-0.04504009
133	0x3c82fa6e	0.015988555
134	0xbeab636e	-0.33474296
135	0x3edc6608	0.43046594
136	0x3b1ad7a9	0.0023627079
137	0x3e67bd83	0.22630887
138	0xbf3fe64b	-0.74960774
139	0xbddd66c9	-0.1081062
140	0x3df46470	0.119332194
141	0x3e25d9be	0.16196343
142	0x3dae8f79	0.08523459
143	0xbd04283a	-0.032264926
144	0xbe214f2e	-0.15752861
145	0x3e9a7eda	0.30174905
146	0xbe829766	-0.25506133
147	0xbf12b8ea	-0.57313406
148	0xbd2cf697	-0.042227354
149	0x3e0167cc	0.12637252
150	0xbe851239	-0.25990465
151	0xbc707a86	-0.014677649
152	0x3e7c79e9	0.2465588
153	0xbd823f7d	-0.06359766
154	0x3cad5b56	0.021161716
155	0xbe7add12	-0.24498394
156	0xbc9e263d	-0.019305343
157	0x3e369613	0.17830686
158	0x3e34ba0f	0.176491
159	0x3e7a312e	0.24432823
160	0xbe436a0d	-0.19083424
161	0xbe547ee9	-0.20751537
162	0xbe0370da	-0.12836018
163	0x3ebccaa9	0.36873367
164	0x3e65dd40	0.22447681
165	0x3ccdaae1	0.025105895
166	0x3e8997b5	0.26873556
167	0xbea194bd	-0.3155879
168	0xbe7098e8	-0.23495829
169	0x3e78df46	0.24303922
170	0x3e634127	0.22192822
171	0xbc086756	-0.008325418
172	0xbe58decd	-0.21178742
173	0xbdb1a2e3	-0.08673646
174	0xbf5b9b63	-0.85783976
175	0x3e1bf82f	0.15231393
176	0xbd626656	-0.055273376
177	0x3e5a3f5b	0.2131323
178	0xbc207ca3	-0.009795341
179	0x3dd0462e	0.10169636
180	0xbdf36ad0	-0.11885607
181	0xbcf5db04	-0.030011661
182	0x3ebaa7ae	0.36456054
183	0xbd6e1e0b	-0.05813412
184	0x3c5b4339	0.013382726
185	0xbe6f49fc	-0.23368067
186	0xbe836b0b	-0.25667605
187	0xbe91b3aa	-0.28457385
188	0xbdc314f5	-0.095254816
189	0xbe5d259c	-0.21596378
190	0xbe36fdec	-0.17870301
191	0x3e827128	0.25476956
192	0xbe81aced	-0.25327244
193	0x3d62071c	0.05518256
194	0xbdb970e4	-0.09054735
195	0xbea67288	-0.32509255
196	0x3e8ded36	0.2772004
197	0x3e0ecf95	0.13946374
198	0x3ec1933a	0.37807637
199	0xbc31ab2c	-0.010844033
200	0x3cebe64e	0.028796341
201	0x3e3833d5	0.17988522
202	0xbe6b8891	-0.23001315
203	0x3df21d8b	0.11822041
204	0xbe9cfe1e	-0.30662626
205	0x3e1a7712	0.15084484
206	0xbceb3ece	-0.028716471
207	0x3eb8220d	0.3596348
208	0xbe6665c5	-0.2249976
209	0xbdb7d029	-0.0897525
210	0xbe98b506	-0.2982561
211	0xbe07b767	-0.13253556
212	0x3e0f07c9	0.13967814
213	0x3e2c8b7d	0.16850086
214	0x3cd9ee8a	0.026603002
215	0x3dcdb391	0.10044015
216	0x3e620bba	0.22074786
217	0xbe730d9d	-0.23735662
218	0x3ebe06a7	0.3711445
219	0x3eb2b0d3	0.3490053
220	0x3e63160d	0.2217638
221	0x3de82af6	0.11336319
222	0x3e7a8ccc	0.24467772
223	0x3d9848ee	0.07435785
224	0x3e8719ab	0.2638677
225	0xbe9b33d1	-0.3031297
226	0xbea179b2	-0.3153816
227	0x3e320b08	0.1738702
228	0xbf01c6a8	-0.5069375
229	0xbe8805a0	-0.26566792
230	0x3e997758	0.29973865
231	0xbe3ffec5	-0.1874953
232	0x3d193131	0.03740043
233	0x3e8c4ade	0.2740087
234	0x3ecb056c	0.39652574
235	0x3d9d46d4	0.07679525
236	0x3ecbc5c8	0.39799333
237	0xbe998cb3	-0.29990157
238	0xbe42f519	-0.1903881
239	0xbe3a82b4	-0.18213922
240	0xbe8f77bf	-0.28021047
241	0xbe966b6b	-0.29378828
242	0x3e6977b6	0.22799572
243	0xbd9e594d	-0.077318765
244	0x3dd3c96a	0.10341151
245	0xbeb43182	-0.3519402
246	0xbdc591de	-0.096469626
247	0x3e6414c4	0.22273546
248	0x3e164fab	0.14678828
249	0x3e2568f1	0.16153313
250	0x3d7deb85	0.061992187
251	0x3bd870f1	0.0066052605
252	0x3e6d6a67	0.2318512
253	0xbec3e3eb	-0.38259825
254	0xbe521b38	-0.20518196
255	0xbed4c8f5	-0.41559568

net.0.bias f4 [128]
0	0x3c198810	0.009370819
1	0xbe25b028	-0.1618048
2	0xbe9d1713	-0.30681667
3	0x3c1fdbbb	0.009756978
4	0xbe59453b	-0.21217816
5	0x3e9deccd	0.30844727
6	0xbec97b48	-0.3935187
7	0x3e8c85bd	0.27445784
8	0x3dad84e7	0.08472615
9	0x3e9de682	0.30839926
10	0x3eb7c7a0	0.3589449
11	0xbe1b9347	-0.151929
12	0xbe836007	-0.256592
13	0xbe907c08	-0.28219628
14	0xbe4bba5c	-0.19895309
15	0x3eaab037	0.33337566
16	0xbebbb374	-0.3666035
17	0x3e673a26	0.22580776
18	0xbd67127c	-0.056414112
19	0x3dac6895	0.08418385
20	0xbe8c8140	-0.2744236
21	0xbcb90496	-0.022585195
22	0xbdb3b205	-0.08774189
23	0x3d2a780d	0.041618396
24	0xbebb2a29	-0.36555603
25	0x3de7cd3f	0.113184445
26	0xbe3cc741	-0.18435384
27	0x3e27a9cc	0.16373366
28	0xbdd80ba5	-0.10549096
29	0x3df215ec	0.118205875
30	0xbe376126	-0.17908153
31	0xbd72faf5	-0.059321363
32	0x3e800fe7	0.25012133
33	0xbc7d7d0b	-0.015471707
34	0x3e85c5b1	0.2612739
35	0xbe14192a	-0.14462724
36	0xbe162c66	-0.14665374
37	0xbe9f2360	-0.31081676
38	0xbd0ff9a1	-0.035150174
39	0xbc4cf2d1	-0.012509064
40	0xbe596597	-0.2123016
41	0x3c86050f	0.016359834
42	0xbe4e711a	-0.20160332
43	0xbe0de353	-0.13856249
44	0x3e2a217b	0.16614334
45	0x3e787a72	0.24265459
46	0x3e7a8612	0.24465206
47	0x3d41ce35	0.047315795
48	0xbd14c8b3	-0.036324214
49	0xbe30b991	-0.17258288
50	0x3d9a4323	0.075323366
51	0xbe63e9e3	-0.2225719
52	0x3c497e78	0.012298219
53	0xbe47260f	-0.19448112
54	0x3d82534f	0.06363546
55	0xbe912123	-0.28345594
56	0xbe334feb	-0.17510955
57	0x3dd2e17b	0.10296913
58	0xbe6ed8bc	-0.23324865
59	0xbe07262c	-0.13198155
60	0x3e52b2c9	0.20576014
61	0x3d0b4b2b	0.034007233
62	0xbe786e01	-0.24260713
63	0x3c04b852	0.008100586
64	0x3e628658	0.2212156
65	0x3e727654	0.23677951
66	0xbcd30703	-0.02576018
67	0x3e5659df	0.2093272
68	0x3cc00847	0.023441447
69	0x3e997925	0.29975238
70	0xbcb90387	-0.02258469
71	0x3c9dbc91	0.019254955
72	0xbe2d384c	-0.16916007
73	0xbd100be4	-0.03516759
74	0x3db55fcd	0.08856163
75	0x3e34b14a	0.17645755
76	0xbe8b9910	-0.27265215
77	0x3e41b5e4	0.18917042
78	0x3d3fa1b9	0.04678509
79	0xbea04834	-0.31305087
80	0xbd54b41a	-0.05192957
81	0x3e40ea24	0.18839318
82	0xbe4013d3	-0.18757562
83	0x3de3490f	0.11097919
84	0xbd0edb38	-0.034877032
85	0xbea7cded	-0.32774296
86	0x3dd85705	0.10563473
87	0x3e892f85	0.26794067
88	0xbe20b5a4	-0.1569429
89	0xbe13efa9	-0.14446892
90	0x3df73baf	0.120719306
91	0xbd9c6322	-0.076360956
92	0xbe9e49a5	-0.3091556
93	0xbeaf9ac1	-0.34297755
94	0xbe986b7a	-0.29769498
95	0x3e04b81f	0.12960862
96	0x3d0b7b94	0.0340534
97	0xbea76507	-0.32694265
98	0xbe1091ad	-0.14118071
99	0x3e775b4b	0.24155919
100	0xbdef3681	-0.11680318
101	0xbe139a84	-0.14414412
102	0x3e9e2683	0.30888757
103	0xbe730a2f	-0.23734353
104	0xbdeb3dc0	-0.11486387
105	0x3e37292f	0.17886804
106	0xbcdae1c4	-0.026718982
107	0x3e90fe62	0.2831908
108	0xbeaf976c	-0.34295213
109	0xbe8e640e	-0.2781071
110	0x3e34ce09	0.17656721
111	0xbe2fd36d	-0.17170496
112	0x3d897bc3	0.06713059
113	0x3e240572	0.16017702
114	0xbd9a15dc	-0.075237006
115	0xbd81b842	-0.063339725
116	0x3c8d942a	0.017282564
117	0x3eabde03	0.3356782
118	0xbe8616b1	-0.26189187
119	0x3e6da16e	0.23206112
120	0x3da64653	0.08118882
121	0x3e2800ed	0.16406603
122	0xbe3d44e4	-0.18483311
123	0xbc64802c	-0.013946574
124	0x3e13ebc3	0.14445405
125	0x3d99b18c	0.075045675
126	0x3d6bd450	0.057575524
127	0x3e4b60ea	0.19861189

net.2.weight f4 [64, 128]
0	0xbd18bc0e	-0.037288718
1	0x3d84003d	0.06445358
2	0xbda4bf64	-0.08044317
3	0x3d49548a	0.04915289
4	0x3daef4fd	0.085428216
5	0x3d10fcb6	0.035397254
6	0xbc4be918	-0.012445711
7	0xbdb47104	-0.088106185
8	0x3d2a9ada	0.041651584
9	0x3d6897e6	0.056785487
10	0xbdab5471	-0.08365715
11	0xbd15073d	-0.036383856
12	0xbd49cc81	-0.049267296
13	0xbda8d92a	-0.08244546
14	0x3d9c5a1d	0.07634375
15	0xbd75c122	-0.05999864
16	0xbda661a4	-0.08124092
17	0xbc3a3638	-0.011365466
18	0xbc7999b8	-0.015234403
19	0xbd30e247	-0.043184545
20	0x3daf28b7	0.085526876
21	0xbd9aa735	-0.075514235
22	0x3c84ca60	0.016209781
23	0x3d56008a	0.052246608
24	0xbd99f016	-0.07516496
25	0xbd1d09cb	-0.038339417
26	0x3da39f41	0.0798936
27	0xbd549a05	-0.051904697
28	0xbd82b0b8	-0.06381363
29	0xbc3ac438	-0.011399321
30	0x3bf60ec0	0.0075090826
31	0x3d801b69	0.06255228
32	0x3c84d7b4	0.016216137
33	0x3d483212	0.048875876
34	0x3d91d279	0.071202226
35	0x3995d000	0.00028574467
36	0xbb44bd40	-0.0030020028
37	0xbd514394	-0.05108984
38	0x3daeb4fd	0.085306145
39	0xbd33c628	-0.04389015
40	0xbd5271a6	-0.051377915
41	0xbdb2dc73	-0.087334536
42	0xbd9194b8	-0.07108444
43	0x3d65bf12	0.056090422
44	0x3bdafbb0	0.0066828355
45	0x3d18913e	0.03724789
46	0xbc5550f0	-0.013019785
47	0xbce225f8	-0.027605996
48	0x3d215ac2	0.039393194
49	0x3d3c71ee	0.04600709
50	0xbd85389a	-0.065049365
51	0x3d56d2aa	0.052447
52	0x3d579cc6	0.052639745
53	0xbd966665	-0.07343749
54	0xbca17554	-0.019709267
55	0xbd678f2b	-0.05653302
56	0xbd928c51	-0.071556695
57	0xbabba280	-0.0014315397
58	0xbdae20b4	-0.085023314
59	0xbd95d068	-0.07315141
60	0xbd128a8b	-0.035776656
61	0x3cbda314	0.02314905
62	0xbc73f460	-0.0148898065
63	0x3cc9ca8c	0.024632715
64	0xbcb2b5c8	-0.021815196
65	0xbdb30df1	-0.087428935
66	0x3d24077a	0.040046193
67	0xbd089f42	-0.033355005
68	0x3ceedbdc	0.029157571
69	0x3d1b19b2	0.0378663
70	0x3d852d13	0.06502738
71	0xbd7fe02a	-0.06246964
72	0x3d1df4b6	0.038563453
73	0x3c647bf8	0.013945572
74	0xbd8fffd0	-0.07031214
75	0x3d2a2d16	0.041546904
76	0xbd5cb9cf	-0.05388814
77	0xbd1ff7f2	-0.03905482
78	0x3d210fb6	0.039321624
79	0xbc56be28	-0.01310686
80	0x3d461f2a	0.048369564
81	0x3d569f7e	0.052398197
82	0xbd4a6312	-0.049410887
83	0xbdaf2e0b	-0.08553704
84	0xbd013b70	-0.031550825
85	0xbd25ed98	-0.04050979
86	0x3d6b7742	0.05748678
87	0x3cdd5b58	0.027021095
88	0xbd061d7e	-0.03274297
89	0x3d824bcb	0.063621126
90	0xbd5b48e8	-0.053536326
91	0x3d149b3a	0.036280848
92	0x3c468420	0.012116462
93	0xbd6058e7	-0.054772284
94	0x3bed1970	0.0072356984
95	0x3ba86e90	0.005140133
96	0xbd842bc4	-0.0645366
97	0xbc9f12a0	-0.01941806
98	0x3da209b1	0.07912005
99	0xbd69e444	-0.057102457
100	0xbd9a5dd2	-0.07537426
101	0x3c4cc630	0.012498423
102	0x3c889544	0.016672738
103	0xbcd500d4	-0.026001371
104	0x3cefc40c	0.029268287
105	0xbd5db1bd	-0.054124583
106	0x3c92be88	0.017913118
107	0xbd316627	-0.04331031
108	0x3d81b173	0.06332674
109	0xbc6d9d58	-0.014502846
110	0x3d60ed32	0.054913707
111	0x3c83c694	0.0160859
112	0xbdb0c822	-0.08631922
113	0xbcf021f0	-0.029313058
114	0xbce77a54	-0.028256573
115	0xbce2c112	-0.027679954
116	0xbd1d66e3	-0.0384282
117	0x3d9a9a59	0.07548971
118	0x3d4dc96e	0.050240926
119	0x3d343c66	0.044002913
120	0x3da96845	0.08271841
121	0x3c39b7e8	0.011335351
122	0x3d4d73d2	0.050159283
123	0x3b3313a0	0.002732493
124	0x3d0d3886	0.034477733
125	0x3d5a2c2e	0.05326479
126	0xbd83dd10	-0.06438649
127	0x3d915aef	0.07097422
128	0xbda35c97	-0.079766445
129	0x3ce82ab4	0.028340675
130	0xbd189c9d	-0.037258733
131	0xbda0a68a	-0.07844265
132	0x3d58f98c	0.05297236
133	0x3cfaf327	0.030633522
134	0xbd8b7ee9	-0.068113156
135	0xbcaef481	-0.021356823
136	0x3c653e72	0.013991939
137	0xbd8d5923	-0.06901767
138	0xbda66023	-0.081238054
139	0x3d3b0e16	0.04566773
140	0x3c722aa2	0.014780672
141	0xbd6c8b04	-0.057749763
142	0xbd403960	-0.046929717
143	0x39ff1723	0.00048654628
144	0xbc2a7cb3	-0.010405707
145	0x3d96bf98	0.07360762
146	0xbd73c3eb	-0.059513014
147	0xbc3508b3	-0.011049437
148	0x3d13b10c	0.036057517
149	0xbd0e563a	-0.0347502
150	0xbdb6b0ba	-0.08920427
151	0x3ca4d928	0.02012308
152	0x3d81c2b3	0.06335964
153	0xbda328de	-0.07966779
154	0x3d0c64fb	0.03427599
155	0xbd8522ac	-0.06500754
156	0xbd8d0fb9	-0.068877645
157	0xbd1b6883	-0.037941467
158	0xbda46b11	-0.08028234
159	0xbd7ea726	-0.062171124
160	0x3d14633a	0.036227442
161	0x3d6c1474	0.057636693
162	0xbd5db105	-0.054123897
163	0x3cc02518	0.023455188
164	0x3d748064	0.059692755
165	0xbb11ff69	-0.002227748
166	0xbd866a7e	-0.065632805
167	0x3d4c554d	0.049886037
168	0x3b6988d2	0.003563453
169	0xbbff22c2	-0.007786126
170	0xbd8608e7	-0.06544667
171	0xbd34b836	-0.04412099
172	0x3cef8344	0.029237397
173	0x3d2b333b	0.041796904
174	0xbd06625e	-0.032808654
175	0x3d9abf7a	0.075560525
176	0xbdb53619	-0.08848209
177	0x3cee1b84	0.029065855
178	0x3d438561	0.047734622
179	0x3d6486ee	0.05579274
180	0xbc35364a	-0.011060307
181	0xbbeea8d9	-0.007283312
182	0x3d205cf3	0.039151143
183	0x3ca7c488	0.020479456
184	0x3bafb327	0.005361933
185	0x3cc96cac	0.024587952
186	0xbdc47dde	-0.0959432
187	0xbd023289	-0.031786475
188	0x3c3f7730	0.011686131
189	0x3c5dbdb4	0.013533998
190	0xbd86c9b1	-0.06581438
191	0xbc4a2233	-0.012337255
192	0xbc606a71	-0.013697253
193	0xbcc130ea	-0.023582894
194	0x3d667f02	0.056273468
195	0x3d51db2c	0.05123441
196	0x3ce8c604	0.028414734
197	0xbc223c94	-0.009902138
198	0x3d996e1e	0.07491706
199	0x3c2295c0	0.0099233985
200	0x3d8f970c	0.07011232
201	0x3a91c562	0.0011121447
202	0x3bbbcb19	0.0057309982
203	0xbdb1debf	-0.086850636
204	0x3cc78e5e	0.024359878
205	0x3b5e008e	0.0033874842
206	0xbc9c2dc6	-0.019064795
207	0xbe060fb7	-0.13091932
208	0x3bdc1f90	0.0067176297
209	0xbd82bb2f	-0.06383359
210	0x3c2de367	0.010613299
211	0xbdc34570	-0.095347285
212	0x3c2d911f	0.010593682
213	0xbdc08116	-0.09399621
214	0xbbe04427	-0.006844062
215	0xbd9f8cde	-0.0779054
216	0x3d98b60f	0.074566
217	0xbd1e15b8	-0.03859493
218	0xbcffb7d6	-0.03121559
219	0x3d4822e1	0.048861388
220	0x3d4c2a34	0.049844936
221	0x3d5deba1	0.05417979
222	0xbc596ac7	-0.013270087
223	0x3d1b20d9	0.037873123
224	0xbd1fff4a	-0.039061822
225	0x3d075df0	0.03304857
226	0xbdbc24c1	-0.09186698
227	0x3cad7c37	0.021177394
228	0xbdb8bb52	-0.090201035
229	0x3affe115	0.0019522036
230	0xbcdd26c8	-0.026996031
231	0xbdb327ba	-0.087478116
232	0xbd2f3f13	-0.04278476
233	0x3d2388bd	0.039925326
234	0x3d16bf4f	0.03680354
235	0xbd8f8faa	-0.070098236
236	0xbc1b5d0a	-0.009482631
237	0x3c95ea44	0.018300183
238	0x3d955ac1	0.072927006
239	0x3d9cd960	0.076586485
240	0xbccbcb64	-0.024877258
241	0xbb66c3c8	-0.003521191
242	0xbda53dd4	-0.080684334
243	0xbcb7eff4	-0.022453286
244	0x3d098d6e	0.033582143
245	0xbc7cb524	-0.015424047
246	0xbd57d51e	-0.05269348
247	0xbdb20f70	-0.08694351
248	0x3d9ffee0	0.078122854
249	0xbd1c274e	-0.03812342
250	0xbcc7061f	-0.024294911
251	0x3d9a9418	0.07547778
252	0x3b897240	0.004194528
253	0xbcf62838	-0.030048475
254	0xbb8872c9	-0.004164074
255	0xbd51db30	-0.051234424

net.2.bias f4 [64]
0	0xba1d0000	-0.00059890747
1	0xbd7ca825	-0.061683793
2	0xbda8f4d1	-0.0824982
3	0xbbb8e9d0	-0.005643107
4	0xbcd75cfe	-0.02628946
5	0xbdc455a6	-0.09586649
6	0x3ced17e8	0.028942063
7	0x3b4343de	0.002979509
8	0x3d471636	0.048605166
9	0xbd99f22d	-0.075168945
10	0xbdb5451f	-0.088510744
11	0xbd2dcac9	-0.04242972
12	0xbd3350e3	-0.04377831
13	0x3a5491d5	0.0008108889
14	0x3d640aae	0.055674247
15	0xbd32c1cf	-0.04364186
16	0xbcfacd7f	-0.030615566
17	0xbd3e880b	-0.04651646
18	0x3d26ba60	0.040705085
19	0xbd9092aa	-0.07059224
20	0xbd8c1424	-0.06839779
21	0xbd8dd123	-0.06924655
22	0xbd07a115	-0.033112604
23	0x3d8c94c6	0.06864314
24	0xbcd417d4	-0.025890268
25	0x3d86b752	0.06577934
26	0xbbd0b57d	-0.0063692913
27	0x3cdd4737	0.027011497
28	0x3d8e46d8	0.06947106
29	0xbd5b8145	-0.053590078
30	0xbda25b00	-0.07927513
31	0xbd3989fb	-0.045297604
32	0x3d8987a5	0.06715325
33	0xbdc0649f	-0.09394192
34	0xbc4c45cb	-0.012467812
35	0xbd4a9374	-0.04945703
36	0xbd97b6f7	-0.07407945
37	0xbdbeca61	-0.093159445
38	0xbd0c9901	-0.034325603
39	0x3d4f2384	0.05057098
40	0x3cc0f88f	0.023556022
41	0x3d2d8278	0.042360753
42	0x3c993b28	0.018704966
43	0xbd2c713f	-0.042100187
44	0xbcea3cc9	-0.028593438
45	0x3da34fdc	0.07974216
46	0xbd357d50	-0.04430896
47	0xbd059aa4	-0.03261818
48	0xbdc12b70	-0.09432113
49	0xbda8e02f	-0.082458846
50	0xbcd9402f	-0.026519863
51	0x3d826214	0.06366363
52	0xbd85f517	-0.06540888
53	0x3d6b031c	0.057376012
54	0xbd8226f9	-0.0635509
55	0xbcd3b45c	-0.025842838
56	0x3dc089e5	0.09401301
57	0xbd69016f	-0.056886133
58	0xbd27e35f	-0.040988322
59	0x3c997394	0.01873187
60	0xbd53140a	-0.051532783
61	0xbd3688df	-0.044564124
62	0x3cda8d10	0.026678592
63	0xbcb08ef4	-0.02155254

net.4.weight f4 [1, 64]
0	0xbd6c1774	-0.057639554
1	0xbdd9e773	-0.106398486
2	0xbcaf1e0a	-0.021376628
3	0x3da00744	0.07813886
4	0x3ca71d88	0.020399824
5	0x3d8c3c8a	0.068474844
6	0x3b5ac96f	0.0033384224
7	0x3b486539	0.0030577912
8	0x3d98a560	0.07453418
9	0xbd09aa30	-0.03360957
10	0x3d163b2b	0.03667752
11	0xbb08bd44	-0.0020864764
12	0x3d99450a	0.07483871
13	0x3da8fa4c	0.08250865
14	0xbbb8a8dc	-0.005635364
15	0xbca1a274	-0.019730784
16	0xbae71b6d	-0.0017632075
17	0x3cb93b19	0.022611188
18	0x3c5917de	0.013250319
19	0xbdbdfef4	-0.09277144
20	0x3d9f374b	0.07774218
21	0xbaf4e01e	-0.0018682515
22	0x3dc057ef	0.09391772
23	0x3b2eb849	0.0026660135
24	0xbc87bc7d	-0.01656937
25	0x3cbe1275	0.02320216
26	0x3cb54ddd	0.022131855
27	0x3d8976f0	0.06712139
28	0xbc884838	-0.016636
29	0xbdb5e773	-0.08882036
30	0x3d8a7f99	0.067626186
31	0x3dabf661	0.083966024
32	0x3d4113ba	0.047137953
33	0xbd632da2	-0.05546344
34	0xbde31bc7	-0.110892825
35	0x3dd2b83f	0.102890484
36	0x3a84ee62	0.0010141844
37	0x3b8b3a79	0.004248914
38	0x3da9e6d6	0.082959816
39	0xbdadc249	-0.084843226
40	0xbb92b87e	-0.0044775596
41	0xbcc9e38c	-0.024644636
42	0x3dcba258	0.09943074
43	0x3dd5f5b2	0.10447253
44	0x3c837cdc	0.016050749
45	0x3c233a98	0.0099627
46	0xbd0ecad5	-0.034861404
47	0xbe827e54	-0.25487006
48	0xba96e196	-0.0011511322
49	0xbd06d653	-0.03291924
50	0x3d9d9029	0.07693512
51	0x3da4ddb0	0.08050096
52	0x3d75b103	0.059983265
53	0xbd9f4fb4	-0.07778874
54	0xbdaea5b6	-0.085277006
55	0x3d8bafed	0.068206646
56	0x3dc84cfb	0.09780308
57	0xbdf87c6c	-0.121331066
58	0xbd8dfd37	-0.069330625
59	0xbc19d467	-0.00938902
60	0xbbb96936	-0.005658294
61	0x3d365f11	0.044524256
62	0x3c11a223	0.008888754
63	0x3dc66e89	0.09689052
