modelos/modelo_mlp_crimen.pt (torch, 41677 bytes, 5 tensors)

net.0.weight f4 [128, 9]
0	0xbf00a75c	-0.5025537
1	0xbe20ae48	-0.15691483
2	0x3eabf6a7	0.33586618
3	0xbe0a2448	-0.13490403
4	0x3e9691c5	0.29408088
5	0xbe8e9a7e	-0.27852243
6	0xbec0005b	-0.3750027
7	0xbefcc564	-0.49369347
8	0xbe8dda49	-0.277056
9	0x3e04646d	0.12928934
10	0x3e4ae57a	0.19814101
11	0x3e878dd0	0.26475382
12	0x3f1b1a82	0.6058732
13	0x3cf1cafc	0.029515736
14	0xbbc01601	-0.005861998
15	0xbc4c8c1e	-0.012484578
16	0x3e3c024e	0.18360254
17	0xbea0803b	-0.31347832
18	0xbec9ee10	-0.3943944
19	0xbe6eddd2	-0.23326805
20	0xbe96f5d4	-0.29484427
21	0x3f4cdf8f	0.80028623
22	0xbdc9e66b	-0.09858402
23	0x3d254304	0.040347114
24	0xbe26f772	-0.1630533
25	0x3e6506dd	0.223659
26	0xbeaf88d4	-0.3428408
27	0x3e8d8d3c	0.27646816
28	0x3e9366c1	0.28789333
29	0xbf3a3aca	-0.72745955
30	0xbeef825e	-0.4677915
31	0xbe28d0ce	-0.16485903
32	0x3f1c28e8	0.6099992
33	0x3d33e2e0	0.043917537
34	0x3d026709	0.031836543
35	0xbecaf035	-0.39636388
36	0xbde93327	-0.1138671
37	0xba8aa131	-0.0010576603
38	0xbd9b5ef8	-0.07586473
39	0x3f8ba74d	1.0910431
40	0xbe500b0f	-0.20316719
41	0xbe5b0ccd	-0.21391602
42	0x3de42a6a	0.11140902
43	0x3d83a0b6	0.064271376
44	0x3bc4405c	0.0059891175
45	0xbd55db98	-0.052211374
46	0xbea400f7	-0.32031986
47	0xbe58d6fc	-0.2117576
48	0x3f251cdb	0.64497155
49	0x3bbdabaa	0.005788286
50	0x3dc8eb75	0.09810535
51	0xbede4816	-0.43414372
52	0x3d3552e5	0.044268508
53	0xbe05b00b	-0.13055436
54	0x3e18a96e	0.14908382
55	0x3e1c9bf4	0.15293866
56	0x3e629eb0	0.22130847
57	0xbec18ac3	-0.3780118
58	0xbdc2ff77	-0.09521382
59	0xbf9326a0	-1.1496162
60	0x3d282c84	0.04105808
61	0x3e200b89	0.156294
62	0x3db8c852	0.09022583
63	0x3d91b37d	0.07114313
64	0x3e9f7994	0.31147444
65	0x3ec2064b	0.37895426
66	0xbe8a2fb4	-0.2698952
67	0xbe20d8e9	-0.15707745
68	0xbf021e5b	-0.5082757
69	0xbf3a9f05	-0.72898895
70	0x3d9dc6eb	0.07703956
71	0xbe04ddb7	-0.12975203
72	0x3bd43c29	0.006476898
73	0xbe5f794d	-0.21823616
74	0x3ed1273c	0.40850246
75	0x3f503739	0.81334263
76	0x3d1aff99	0.037841413
77	0xbea99a98	-0.33125758
78	0xbd565510	-0.052327216
79	0x3e4a401f	0.19751023
80	0xbee4ba34	-0.44673312
81	0x3eacb8aa	0.33734637
82	0x3c987934	0.018612482
83	0xbfb0327f	-1.376541
84	0xbdd4f4d5	-0.103982605
85	0x3d589ad6	0.052882038
86	0xbea7365d	-0.32658663
87	0xbee7b911	-0.45258382
88	0xbf27e693	-0.65586203
89	0x3cfe6e4c	0.031058453
90	0xbbb5739f	-0.0055374647
91	0xbf06a56f	-0.5259618
92	0xbe81e389	-0.25368908
93	0x3f9c8538	1.2228155
94	0xbe360253	-0.17774324
95	0xbeab5f71	-0.33471254
96	0x3dbfbf0e	0.09362613
97	0x3d1ddf00	0.038542747
98	0x3b7ecbb8	0.003887875
99	0x3eefb176	0.4681508
100	0xbd7e7d5e	-0.06213128
101	0x3ebd5ae6	0.36983413
102	0xbf56d192	-0.8391353
103	0xbe85b28a	-0.26112777
104	0xbd9e9172	-0.07742585
105	0xbe174c35	-0.14775164
106	0xbe517fca	-0.20458904
107	0x3ea202d0	0.3164277
108	0x3d1d6a19	0.03843126
109	0xbd4f95a4	-0.050679818
110	0x3e04d688	0.12972462
111	0xbc07fe84	-0.008300427
112	0x3d58d35e	0.05293595
113	0x3efce88e	0.49396175
114	0xbd1fa2cc	-0.038973615
115	0xbe5d4e60	-0.21611929
116	0xbe7169de	-0.23575541
117	0x3deaa13a	0.11456533
118	0x3ea4df47	0.32201597
119	0xbe49c899	-0.19705428
120	0x3f152ba7	0.58269733
121	0xbe35cccf	-0.1775391
122	0xbed1bf0b	-0.40966067
123	0x3ca9c4ab	0.020723661
124	0xbda277b7	-0.0793299
125	0x3c4c0693	0.012452739
126	0x3d726042	0.05917383
127	0x3eb4f205	0.35340896
128	0xbe9b0fbe	-0.30285448
129	0x3e88fddc	0.2675618
130	0xbd5c85a7	-0.0538384
131	0xbea6c689	-0.32573345
132	0xbece2941	-0.4026585
133	0xbc6fbd38	-0.014632516
134	0xbea52055	-0.3225123
135	0x3efbf724	0.4921199
136	0xbf1ff5e9	-0.62484604
137	0xbf42b383	-0.76055163
138	0xbf2ed9b0	-0.68300915
139	0x3eb9f74d	0.36321488
140	0xbe02fd52	-0.12791947
141	0xbd4b5881	-0.04964495
142	0xbd0e01e2	-0.034669764
143	0xbf1e3898	-0.61805105
144	0x3e3b7f6d	0.18310328
145	0xbe73d4f2	-0.23811701
146	0xbe8472ff	-0.25868985
147	0x3dd58605	0.10425953
148	0xbe1c0a4f	-0.15238307
149	0x3ce30353	0.027711546
150	0xbe8c4b69	-0.27401283
151	0xbe2749ae	-0.163367
152	0xbe2fd7e6	-0.17172202
153	0x3e4f3826	0.20236263
154	0x3ed9c6d3	0.42534503
155	0x3d38b4e4	0.045094386
156	0x3da32a25	0.07967023
157	0x3e15101d	0.14556928
158	0xbf0700eb	-0.52735776
159	0xbf0d9658	-0.5530753
160	0xbf160815	-0.5860608
161	0xbc9c6514	-0.019091167
162	0x3e73d82a	0.23812929
163	0x3e30fc07	0.17283641
164	0xbf24e3e5	-0.6441024
165	0xbe12f67f	-0.14351843
166	0x3e123608	0.14278424
167	0xbea215e9	-0.3165734
168	0xbe6ff919	-0.23434867
169	0xbf2518a3	-0.6449072
170	0xbea065af	-0.31327578
171	0xbf1e05ec	-0.61727786
172	0xbe846942	-0.25861555
173	0xbc885b7a	-0.016645182
174	0xbf20814a	-0.6269728
175	0x3eb7008f	0.35742614
176	0x3e8a99aa	0.2707036
177	0xbe352c4b	-0.17692678
178	0xbedc562b	-0.4303449
179	0xbec56db8	-0.3856027
180	0xbe06ba63	-0.13157038
181	0xbd42c44d	-0.04755049
182	0x3e17370c	0.14767092
183	0xbdf21392	-0.11820139
184	0xbe8ebb72	-0.27877384
185	0xbdf334ac	-0.11875281
186	0xbeba14d5	-0.3634402
187	0xbe9c173b	-0.30486473
188	0xbe0016cb	-0.12508695
189	0xbcdecbf9	-0.027196871
190	0x3e25d5fe	0.16194913
191	0x3e497fbc	0.19677633
192	0x3f2622e0	0.64896965
193	0xbca21b97	-0.019788546
194	0x3ce7b182	0.028282885
195	0xbeebeaf2	-0.46077687
196	0x3e00d8dd	0.12582727
197	0xbe96f110	-0.2948079
198	0xbed66a12	-0.418778
199	0x3eeb9f64	0.46020043
200	0x3e48fe69	0.196283
201	0xbe9b73aa	-0.30361682
202	0xbcefb3c9	-0.029260533
203	0x3adf13da	0.0017019466
204	0xbdabe0fc	-0.08392522
205	0xbd80b04b	-0.06283625
206	0xbe2d272b	-0.16909473
207	0xbe6492f1	-0.22321679
208	0xbcf9e4ac	-0.030504547
209	0xbf345efa	-0.7045742
210	0x3f946613	1.159365
211	0x3d9a7bf5	0.07543174
212	0x3e196070	0.14978194
213	0x3d24ded6	0.040251575
214	0xbe05ecbd	-0.1307859
215	0xbdb0a0c4	-0.086244136
216	0x3ecc3602	0.39884955
217	0x3e308f89	0.17242254
218	0xbf932524	-1.149571
219	0x3e7488ee	0.2388036
220	0xbe1a1073	-0.15045337
221	0xbeca84a9	-0.39554337
222	0xbdf7616d	-0.12079129
223	0xbee114ab	-0.4396108
224	0xbe0a4ed3	-0.13506632
225	0xbe86a44b	-0.2629722
226	0xbdc2cc9c	-0.095116824
227	0x3c0626ec	0.008187991
228	0x3f84f0ee	1.0386026
229	0xbdc0fafa	-0.0942287
230	0x3e05570b	0.13021486
231	0x3daa683c	0.083206624
232	0x3e9d8748	0.30767274
233	0xbe6a428f	-0.22876953
234	0x3e6bde8e	0.23034117
235	0xbe4acfc3	-0.19805817
236	0x3d435648	0.047689706
237	0x3ca14770	0.019687384
238	0xbe3e4c4e	-0.18583795
239	0xbd632088	-0.055450946
240	0x3dcf7900	0.10130501
241	0xbd8dfa9c	-0.069325656
242	0xbe48360e	-0.1955187
243	0x3ef7506b	0.48303542
244	0xbe68a65f	-0.22719716
245	0xbf26a9ff	-0.65103143
246	0xbeec58bd	-0.46161452
247	0x3e2fbad2	0.1716111
248	0xbe907c68	-0.28219914
249	0x3ddba126	0.10724096
250	0xbeb49eba	-0.3527735
251	0xbd89dbbf	-0.06731366
252	0x3d4af0c5	0.049546022
253	0x3e0cbcb3	0.13743858
254	0x3f25952b	0.6468074
255	0x3eea1c47	0.457247

net.0.bias f4 [128]
0	0xbde34a80	-0.11098194
1	0xbf586a4b	-0.8453719
2	0xbcdceaa9	-0.026967363
3	0x3f22d6d5	0.6360906
4	0xbdde358a	-0.108500555
5	0xbf3333ba	-0.70000803
6	0x3f2791d9	0.6545692
7	0xbdca51d0	-0.09878886
8	0xbe0b2d21	-0.13591434
9	0xbd06f5c7	-0.032949235
10	0x3da6299c	0.08113405
11	0xbec5ddde	-0.38645834
12	0xbddf91e6	-0.109165
13	0x3ebfddd6	0.37473935
14	0xbeba9210	-0.36439562
15	0xbe79855e	-0.24367282
16	0x3d7e3060	0.062057853
17	0xbe97cf80	-0.29650497
18	0xbee533d5	-0.44766107
19	0x3d4a8ac7	0.049448755
20	0x3e1bec39	0.1522683
21	0xbf0035d6	-0.5008215
22	0xbf0589c7	-0.52163357
23	0x3ec72a59	0.38899496
24	0xbefa51d7	-0.48890564
25	0xbd3ae15c	-0.045625076
26	0xbe9e9877	-0.30975696
27	0x3e6a7d17	0.2289928
28	0x3d31bdba	0.043393828
29	0x3ebef73a	0.37297994
30	0x3e1c6dad	0.15276213
31	0x3e1c0592	0.152365
32	0x3f0bf09d	0.5466402
33	0x3f4d28b1	0.80140215
34	0x3ec0c948	0.37653565
35	0xbeec03b3	-0.46096572
36	0xbe8c1ff0	-0.27368116
37	0xbea8c088	-0.3295939
38	0x3f504659	0.8135734
39	0x3e7bae35	0.24578173
40	0xbf9b0561	-1.2111017
41	0x3f387bfc	0.72064185
42	0xbe1dfa91	-0.15427615
43	0xbf6639a2	-0.8993169
44	0xbf9fe25b	-1.2490953
45	0xbe65278d	-0.22378369
46	0x3ebdbab9	0.3705652
47	0xbeae4a37	-0.34040996
48	0xbeffeb0b	-0.4998401
49	0xbe2553c1	-0.16145231
50	0xbe924ea0	-0.2857561
51	0xbe021f0a	-0.12707153
52	0xbf1c2495	-0.6099332
53	0xbfa01f76	-1.2509601
54	0xbf6196b3	-0.88120574
55	0x3dd33a0f	0.10313808
56	0xbf071910	-0.5277262
57	0x3f1a3219	0.6023269
58	0xbd944fd1	-0.07241786
59	0x3e327728	0.17428267
60	0xbf0dae9d	-0.55344564
61	0xbf211e9d	-0.6293734
62	0xbddf3552	-0.10898842
63	0x3e9c205b	0.30493435
64	0x3eb05452	0.3443933
65	0xbdc9e391	-0.09857858
66	0xbf186d77	-0.5954203
67	0xbe96e875	-0.29474226
68	0x3f09b9ff	0.5379943
69	0xbdf6e059	-0.1205451
70	0xbe76a13f	-0.24084948
71	0xbf35950c	-0.7093055
72	0xbeb3902d	-0.35070935
73	0x3e7d4ec3	0.24737076
74	0xbf2e1033	-0.6799347
75	0x3f0f9147	0.5608105
76	0xbe5e7e7d	-0.21727939
77	0xbcc46090	-0.023971826
78	0xbf51f8b5	-0.8202012
79	0xbe17c753	-0.1482213
80	0xbed9b386	-0.42519778
81	0x3eca8e07	0.39561483
82	0x3e2d0bb9	0.16899003
83	0xbe84c897	-0.25934288
84	0xbf10bb53	-0.56535834
85	0xbebdeb38	-0.3709352
86	0xbebccff3	-0.36877403
87	0xbc5bc1bd	-0.01341289
88	0x3f413bcb	0.7548186
89	0x3e799c3f	0.2437601
90	0xbf3a7c0c	-0.7284553
91	0x3d383ce5	0.04497995
92	0x3dae92be	0.085240826
93	0x3f4a84f3	0.79109114
94	0xbe29197c	-0.16513628
95	0xbf21a64a	-0.6314436
96	0xbeea1079	-0.45715693
97	0x3e37701a	0.17913857
98	0xbe72058f	-0.23634933
99	0xbe771965	-0.24130781
100	0xbf0efe2f	-0.55856603
101	0x3e43de1d	0.19127698
102	0xbdffd097	-0.12490957
103	0xbf1ae110	-0.6049967
104	0x3e9fed9b	0.31235966
105	0xbe93f791	-0.28899816
106	0xbf21056b	-0.6289889
107	0xbeb385ca	-0.3506301
108	0x3ea32cc3	0.31870088
109	0xbe63733e	-0.2221193
110	0xbe6e3b24	-0.23264748
111	0x3e49dbd6	0.19712767
112	0xbed40ed5	-0.41417566
113	0x3f49c3d8	0.7881446
114	0xbd9d8732	-0.07691802
115	0xbdfd8983	-0.12379744
116	0xbe497458	-0.19673288
117	0xbd78ef3f	-0.060775038
118	0x3e4f6ddc	0.20256752
119	0xbf0ad4b2	-0.542308
120	0xbfa9c53a	-1.3263314
121	0xbf03dcec	-0.51508975
122	0xbeeeb3fb	-0.4662169
123	0xbe089327	-0.13337384
124	0xbe92fafe	-0.28707117
125	0xbdf8e0b4	-0.12152234
126	0xbd907d9c	-0.07055208
127	0xbcf4fe54	-0.02990643

net.2.weight f4 [64, 128]
0	0xbd6309b1	-0.055429164
1	0x3c5a38a0	0.0133191645
2	0x3d8c4ed1	0.068509705
3	0x3d954ad9	0.07289667
4	0xbb277145	-0.0025549692
5	0xbd713241	-0.058885816
6	0xbda867e2	-0.08222939
7	0x3d7d88ba	0.06189797
8	0x3db4d88f	0.08830368
9	0xbcbb47ec	-0.022861443
10	0xbc58e2e0	-0.013237685
11	0x3c51a953	0.012796718
12	0x3d3b2946	0.04569366
13	0xbdb4dc39	-0.08831067
14	0xbd8ba27a	-0.06818099
15	0xbd092919	-0.03348646
16	0xbdb43560	-0.08799243
17	0xbb83b020	-0.0040187985
18	0xbd9dcacd	-0.07704697
19	0x3c983c2c	0.01858338
20	0xbd568d91	-0.052381102
21	0xbc4667b0	-0.012109682
22	0xbd153095	-0.036423285
23	0x3d036c32	0.032085605
24	0xbcc45684	-0.023967035
25	0xbc6bb348	-0.014386006
26	0x3d8ee5d9	0.06977434
27	0x3bfea220	0.0077707916
28	0x3d89fe47	0.06737953
29	0x3d7bb5f2	0.061452813
30	0xbd7c0c3a	-0.061535098
31	0x3d4c958e	0.049947314
32	0xbd41ca17	-0.04731187
33	0x3c1f8939	0.009737306
34	0x3cab02ca	0.020875353
35	0x3c1eedf0	0.009700283
36	0xbb647f60	-0.003486596
37	0xbd86d14a	-0.065828875
38	0xbcaaec17	-0.02086453
39	0xbdc33011	-0.09530652
40	0xbd8e802c	-0.069580406
41	0xbd5803a0	-0.052737832
42	0xbd18d63d	-0.03731369
43	0xbcaa68c5	-0.020801911
44	0xbd3de033	-0.04635639
45	0x3d97b80f	0.07408153
46	0x3bdcfb20	0.0067438036
47	0xbcd935cc	-0.02651491
48	0xbd4078c5	-0.046990175
49	0xbcdb524a	-0.026772637
50	0xbc5f400f	-0.013626113
51	0xbcb0931c	-0.021554522
52	0xbdec0eae	-0.115262374
53	0xbd99e88c	-0.07515058
54	0x3cbad4d9	0.022806572
55	0xbc187cff	-0.009307145
56	0xbd6089df	-0.054818984
57	0xbd120879	-0.03565261
58	0xbcbdbcf5	-0.02316139
59	0xbd2c8c0b	-0.042125743
60	0xbb628599	-0.0034564494
61	0x3dafb7fb	0.08580013
62	0xbcdc414a	-0.026886601
63	0x3cb31214	0.021859206
64	0x3d5a4602	0.05328942
65	0xbd63819f	-0.05554354
66	0xbd8be5ca	-0.06830938
67	0xbdad2364	-0.08454016
68	0xbd2b385b	-0.04180179
69	0xbd30dae6	-0.043177508
70	0xbd3a7955	-0.045525867
71	0xbd3cb96c	-0.04607527
72	0xbcbff8f4	-0.02343414
73	0xbda92804	-0.082595855
74	0xbc1ad448	-0.009450026
75	0x3d83f361	0.06442905
76	0x3d058c8c	0.03260474
77	0xbd2d794f	-0.042352017
78	0x3c50992e	0.012731833
79	0x3d2a5eba	0.041594245
80	0x3d6bc15e	0.057557456
81	0xbd71732c	-0.058947727
82	0xbd93fb60	-0.0722568
83	0x3bf2bac0	0.0074075162
84	0x3d86440c	0.06555948
85	0xbc933574	-0.017969824
86	0x3d9902f7	0.074712686
87	0x3cb735d0	0.022364527
88	0x3d5d4dc1	0.05402923
89	0xbdd741da	-0.10510607
90	0x3cc4892e	0.023991194
91	0xbd9fa489	-0.077950545
92	0xbd24a22f	-0.040193733
93	0x3b991b0c	0.0046724137
94	0xbd9bfdd0	-0.0761677
95	0x3dac9275	0.08426372
96	0x3becc220	0.00722529
97	0x3d0c3eac	0.034239456
98	0xbca01f98	-0.019546315
99	0xbcfa1994	-0.030529775
100	0xbcb06a00	-0.02153492
101	0xbbee79c0	-0.0072776973
102	0xbd27bc97	-0.040951338
103	0x3daa7257	0.0832259
104	0xbd0c2a60	-0.0342201
105	0xbdb061df	-0.086124174
106	0x3cf3311c	0.029686503
107	0xbd1a2612	-0.037633963
108	0xbc1c6810	-0.009546295
109	0x3b8651ef	0.0040991227
110	0x3d2bff02	0.04199124
111	0xbd7df784	-0.062003627
112	0xbcc92fe4	-0.024558969
113	0xbd958b84	-0.07302001
114	0x3d8cf36f	0.06882369
115	0xbd9d2945	-0.07673887
116	0xbcc0a79d	-0.023517424
117	0xbcae5708	-0.021281734
118	0x3d93c42b	0.072151504
119	0x3d18d606	0.037313484
120	0x3b5ce813	0.0033707663
121	0xbd38a64f	-0.04508048
122	0x3bb4bad0	0.005515434
123	0xbd96e62d	-0.07368121
124	0x3d75da36	0.060022555
125	0x3caeaa0c	0.021321319
126	0xbd12738d	-0.03575473
127	0xbd7b6758	-0.061377853
128	0x3e072734	0.13198549
129	0xbdad0a7c	-0.08449265
130	0xbc14a9dc	-0.009073701
131	0x3ce7624f	0.02824512
132	0xbe224160	-0.15845251
133	0xbd2b3328	-0.041796833
134	0x3cc819ef	0.024426429
135	0xbdbd0bbf	-0.09230756
136	0xbde139a5	-0.10997323
137	0x3e76a545	0.24086483
138	0xbe2a93d2	-0.16657951
139	0xbd096bb3	-0.033549976
140	0x3b9d8214	0.0048067663
141	0xbb372247	-0.0027944015
142	0xbdc1ca60	-0.09462428
143	0xbe2f103e	-0.1709604
144	0x3d57458d	0.052556563
145	0x3d02aa5a	0.03190074
146	0x3dff1c48	0.12456566
147	0x3e1a46ff	0.15066145
148	0xbb61beaf	-0.0034445932
149	0xbd517425	-0.051136155
150	0xbe47b39e	-0.19502112
151	0x3d5b9ec1	0.053618196
152	0x3e447245	0.19184215
153	0xbea6ec3a	-0.32602102
154	0x3c8f367c	0.017482035
155	0xbdd51622	-0.10404612
156	0x3dceb1ef	0.10092532
157	0xbe674876	-0.22586235
158	0x3d9024ae	0.07038246
159	0xbc4c3295	-0.012463232
160	0xbe08fa14	-0.13376647
161	0xbc5c1b8a	-0.0134343
162	0xbda733c9	-0.08164174
163	0xbb470b5d	-0.0030371763
164	0xbdfc4a36	-0.12318842
165	0x3d7fd9b6	0.062463485
166	0xbdbfa898	-0.093583286
167	0xbdb8a262	-0.09015347
168	0xbd96fa17	-0.073719196
169	0xbd5df096	-0.05418452
170	0xbe40dbed	-0.18833895
171	0x3de38ad9	0.111104675
172	0xbab6c694	-0.0013944679
173	0xbdad8fa9	-0.084746666
174	0xbcaa1929	-0.02076395
175	0xbe44e51a	-0.1922802
176	0x3d158c7f	0.03651094
177	0xbddd2403	-0.10797884
178	0xbda55aa1	-0.08073927
179	0xbdc6c413	-0.09705367
180	0xbd860357	-0.06543606
181	0xbdd108fa	-0.1020679
182	0x3c64ff46	0.013976878
183	0xbe36f713	-0.17867689
184	0x3df28feb	0.118438564
185	0x3d562f46	0.052291177
186	0x3b08b3bd	0.0020859085
187	0xbdca94fd	-0.098916985
188	0xbe3fbd15	-0.18724473
189	0x3dbf1617	0.09330385
190	0x3d3a46c7	0.045477655
191	0xbd4568af	-0.048195537
192	0xbd195afe	-0.037440293
193	0x3c640d2c	0.013919156
194	0x3d78b890	0.060722888
195	0x3d9577cc	0.0729824
196	0xbe81bf36	-0.25341195
197	0x3e0f7c83	0.14012341
198	0xbdd7c58b	-0.10535725
199	0xbba43d95	-0.005012224
200	0xbc6a8974	-0.014314998
201	0xbd6f6de2	-0.0584544
202	0xbe25a0b7	-0.16174589
203	0xbe051366	-0.12995681
204	0x3a9740ae	0.0011539662
205	0xbd285fc5	-0.041106958
206	0xbd82bf2d	-0.0638412
207	0xbe02ae71	-0.12761857
208	0xbdd838f4	-0.10557738
209	0xbe0802da	-0.13282338
210	0xbd2aedc9	-0.041730676
211	0x3c3add21	0.01140526
212	0xbd65102d	-0.05592363
213	0xbd8d5202	-0.069004074
214	0x3d2e17b0	0.04250306
215	0xbe65727e	-0.22406957
216	0x3e02dd10	0.12779641
217	0xbd167d48	-0.03674057
218	0xbe4b1fb2	-0.1983631
219	0xbda3a6fa	-0.079908326
220	0x3e539630	0.2066276
221	0x3ddcd392	0.10782541
222	0xbd898166	-0.06714134
223	0xbd98bfa7	-0.0745843
224	0x3dac6c55	0.084191
225	0x3db28f7d	0.087187745
226	0x3d39d753	0.045371365
227	0xbe562022	-0.20910695
228	0xbde4a8c5	-0.11165003
229	0x3c34207e	0.010994075
230	0xbe5044e4	-0.2033878
231	0xbd8955f8	-0.0670585
232	0xbe45a45c	-0.1930098
233	0xbe0cdee8	-0.13756907
234	0xbe3e18f0	-0.185642
235	0xbdac1787	-0.08402925
236	0xbcec48e3	-0.028843349
237	0xbe1a31c6	-0.1505805
238	0xbd47a948	-0.048745424
239	0xbd00c2ee	-0.0314359
240	0x3e1bcf17	0.15215717
241	0xbd6d6c28	-0.057964474
242	0x3d15ea23	0.036600243
243	0x3bec80b3	0.0072174906
244	0xbd13de30	-0.036100566
245	0x3cd067b4	0.025440075
246	0xbe039963	-0.12851481
247	0x3e36b170	0.17841125
248	0xbdeffd6a	-0.11718257
249	0x3db79af8	0.08965105
250	0x3e43c397	0.1911758
251	0xbce1d570	-0.027567595
252	0xbc5ce1f7	-0.013481609
253	0x3da2e03b	0.07952925
254	0xbd6282be	-0.055300467
255	0x3e35b122	0.17743352

net.2.bias f4 [64]
0	0xbde18f0e	-0.11013614
1	0xbe6c264d	-0.23061486
2	0xbc0d98ef	-0.008642419
3	0xbdbaf975	-0.091296114
4	0xbd995c2d	-0.07488284
5	0xbe13c8a4	-0.14432007
6	0xbda5e07a	-0.08099456
7	0xbea91a32	-0.33027798
8	0xbd83c69a	-0.064343646
9	0xbf3d23c0	-0.73882675
10	0xbf2b092a	-0.6681086
11	0xbe48cf1c	-0.19610256
12	0xbded0d21	-0.1157477
13	0xbdaec5d8	-0.085338295
14	0x3e827c99	0.25485685
15	0xbe8cf62f	-0.27531573
16	0xbde04700	-0.10951042
17	0xbdfbc46b	-0.12293323
18	0xbe53afcf	-0.20672534
19	0xbdfd54de	-0.12369703
20	0x3e1d360d	0.1535265
21	0x3c7d58b6	0.015463045
22	0xbe153a9e	-0.14573142
23	0xbe11da5e	-0.14243457
24	0x3e4a12b8	0.19733703
25	0xbd88caca	-0.06679304
26	0xbd7d9d1a	-0.0619174
27	0xbe1282f5	-0.14307769
28	0xbed4b274	-0.415424
29	0xbd8a9cad	-0.06768165
30	0xbcbf3b49	-0.023343699
31	0xbcdf962c	-0.027293287
32	0xbd187bc3	-0.037227403
33	0x3e9566a6	0.29179877
34	0xbe56a0b4	-0.20959741
35	0xbe14cc4b	-0.14531057
36	0xbd7fa2d7	-0.062411156
37	0xbdac2216	-0.08404939
38	0xbe0aef7f	-0.13567923
39	0xbd517149	-0.051133428
40	0x3d32e8d9	0.043679092
41	0xbcb527fc	-0.022113793
42	0xbcd1b12c	-0.025597177
43	0x3bd15546	0.006388339
44	0xbf52c90d	-0.8233803
45	0x3f0caad0	0.5494814
46	0xbd06ce7b	-0.03291176
47	0xbdd46548	-0.1037088
48	0xbea69c88	-0.325413
49	0xbda350ce	-0.07974397
50	0xbd927574	-0.07151309
51	0x3c8f492a	0.017490942
52	0xbd9f4e54	-0.07778612
53	0xbd162375	-0.03665491
54	0xbe1b825e	-0.1518645
55	0xbcaaf0e5	-0.02086682
56	0x3ecca7fe	0.39971918
57	0xbdf7f918	-0.12108058
58	0x3e2679fb	0.1625747
59	0xbd993139	-0.074800916
60	0xbea60fce	-0.32433933
61	0xbda642d8	-0.08118218
62	0xbb0eed9e	-0.0021809111
63	0xbcfc6306	-0.030808937

net.4.weight f4 [1, 64]
0	0x3d7bb9c8	0.06145647
1	0x3a3596de	0.0006927083
2	0x3bfc07ab	0.007691344
3	0xbd372e73	-0.04472203
4	0xbcf99233	-0.030465221
5	0x3c82ed24	0.015982218
6	0x3b9c9562	0.00477855
7	0x3e38f475	0.18062003
8	0xbc7c8ccb	-0.015414427
9	0x3e2bb1f4	0.16767102
10	0xbe6c3cb3	-0.2307003
11	0x3b06d623	0.0020574413
12	0xbd85e444	-0.06537679
13	0x3d4bf912	0.04979808
14	0x3dd795d1	0.10526622
15	0x3b0d591c	0.0021568006
16	0x3e6e4a05	0.23270424
17	0x3ea84c2a	0.3287061
18	0xbe1e332b	-0.15449207
19	0xbc3d0806	-0.0115375575
20	0x3da19f25	0.078916825
21	0x3cd8bbea	0.026456792
22	0x3d2f3923	0.0427791
23	0xbc411eff	-0.011787175
24	0x3d035dea	0.032071985
25	0xbbdddc06	-0.0067706136
26	0xbb96a343	-0.004597099
27	0xbcc874bb	-0.024469724
28	0xbdb925b5	-0.09040395
29	0xbd058530	-0.03259772
30	0xbd8ebf8c	-0.069701284
31	0x3da59f3a	0.08087011
32	0xbd07d3bb	-0.033160906
33	0x3da2d0a2	0.0794995
34	0xbc1246e2	-0.008928033
35	0x3d8d3873	0.068955325
36	0x3dad734a	0.08469255
37	0xbbe510ec	-0.0069905426
38	0x3c328f4c	0.010898422
39	0x3dabb982	0.08384992
40	0xbd449f0d	-0.048003245
41	0x3b650528	0.00349457
42	0x3d38f8db	0.045159202
43	0x3b705e1f	0.0036677194
44	0x3e29ac69	0.16569676
45	0xbd515ec1	-0.051115755
46	0x3d191dc9	0.03738192
47	0x3c4af5f1	0.012387739
48	0x3baef0dd	0.0053387717
49	0x3e8bab1d	0.27278987
50	0x3cabe3fa	0.020982731
51	0xbcd2da8a	-0.025738973
52	0xbd05692b	-0.032571
53	0xbc343dd9	-0.011001074
54	0x3cb7ddbc	0.022444598
55	0x3db4c727	0.08827048
56	0xbd9b65e3	-0.07587793
57	0x3d807f24	0.0627425
58	0x3de37d7a	0.11107917
59	0x3cef41d0	0.029206187
60	0xbbff0734	-0.007782841
61	0xbcbba391	-0.022905143
62	0x3c977769	0.018489556
63	0x3c94f608	0.018183723
